ode_net/code/output/2024-1-11(3;29)_pathreg_chalmers_350genes_150samples_earlyT_0bimod_1initvar_200epochs/best_val_model.pt (torch, 656236 bytes, 19 tensors)

weights f4 [350, 100]
000000 82 88 cf 3d 0a 7d 4f 3d 0f 1e 9a bd 47 d4 eb 3e
       0.10133459 0.050656356 -0.075252645 0.46060392
000010 48 84 25 bf 18 79 7e be 1e 00 a0 be 56 8e ce 3e
       -0.6465497 -0.24850881 -0.3125009 0.4034297
000020 1a cb cf be 22 90 8f be c0 b5 83 bf 78 ac ca be
       -0.40584642 -0.28039652 -1.0289841 -0.39584708
000030 3b 2f f3 3e 4a df 9a 3b ca 9a 5b 3e bb 37 22 be
       0.4749697 0.004726325 0.21445766 -0.15841572
000040 5c 80 b3 bd 98 85 78 bc 98 71 47 bf 3e 61 2a 3e
       -0.08764717 -0.01516857 -0.77907705 0.16638657
000050 02 67 65 3e 1d 3c 02 bf 34 e2 af be 25 b7 92 be
       0.22402576 -0.50872976 -0.34352267 -0.28655353
000060 e0 cb 2d 3e ec 3a 31 3e 4c 41 02 bd 81 24 12 bf
       0.16972303 0.17307633 -0.031800553 -0.5708695
000070 07 1e be be ef 5e 93 3e c6 c8 0f bf 82 58 0f 3f
       -0.37132284 0.28783366 -0.5616573 0.5599443
000080 db 0a da 3e 45 a1 59 3f ed 16 3d bd 9a 04 f7 3d
       0.42586407 0.850117 -0.04616444 0.120614246
000090 56 43 a0 bb 05 98 7d 3e 52 07 eb 3d c6 e6 32 3f
       -0.0048908396 0.24765022 0.114760056 0.6988338
0000a0 77 fc 82 bd 1a 67 ec bd 10 55 a6 3e 39 94 89 3e
       -0.0639581 -0.115431026 0.32486773 0.26870897
0000b0 c6 29 ec bd 74 51 fe 3c 54 e4 68 be aa 54 c7 bd
       -0.11531405 0.0310447 -0.2274335 -0.09732945
0000c0 99 09 9a 3e 88 5f ab bd 0d 43 c8 bd 1b e3 2d be
       0.30085447 -0.083678305 -0.09778414 -0.16981165
0000d0 4e e1 11 be f9 26 21 3f 19 7f 7b 3d d2 6e d3 3e
       -0.14246103 0.6295009 0.061400507 0.41295487
0000e0 a3 33 9a be bd 2a 0b 3f ac a0 91 be 08 a6 49 bd
       -0.3011752 0.5436209 -0.28442895 -0.049230605
0000f0 5f a6 58 bb e8 73 01 3f 18 53 2e 3e 2c 4d 3a 3e
       -0.003305815 0.50567484 0.17023885 0.18193501
000100 1c 47 e2 bd e2 30 ec bd c8 73 a9 3e 79 c5 8c be
       -0.11048719 -0.11532761 0.33096147 -0.2749441
000110 6f cc 08 bf ba e9 cc 3d 75 4a e3 3e b0 a3 e8 3e
       -0.5343694 0.10005517 0.44392744 0.45437384
000120 d5 01 5a 3d a4 41 1c bf 93 bd 07 bf 77 18 02 3e
       0.053224403 -0.6103766 -0.5302364 0.12704645
000130 e4 fd 05 bf b1 d4 7f 3e c1 5b f3 3d ba b9 16 be
       -0.5234053 0.24983479 0.11882735 -0.14719287
000140 a9 7b 33 be 9d c8 27 be 5e a6 ff 3d ee 1a 08 3e
       -0.17527641 -0.16385122 0.12482904 0.13291523
000150 e7 a6 83 3f a4 da 85 3d db 2e 32 3d 4a 6c 5b 3e
       1.028531 0.06535843 0.043501716 0.21428028
000160 24 ae ee 3e 4c 20 24 3f ff 9c 27 3f bc 57 37 bf
       0.46617234 0.6411178 0.6547393 -0.7161825
000170 d2 60 b3 3e 33 23 6c 3d 49 8e 0f 3d 82 c2 ab be
       0.35034806 0.057650756 0.035047803 -0.33546835
000180 f1 e5 83 bf 55 8b 56 3e 99 71 fd 3d b5 e0 09 bf
       -1.0304548 0.20951588 0.12375183 -0.538585
000190 51 09 2c be c0 51 2c bf 36 c6 a9 3d b1 52 a0 be
       -0.16800429 -0.6731224 0.08289759 -0.3131309
0001a0 ee 09 ba be 6e e9 40 3c 6d 82 81 be 7e 1c fb 3d
       -0.363357 0.011774404 -0.2529482 0.12261294
0001b0 26 7c 5c bc bf dc c1 3e 2a c3 2b bf 91 7a 98 3c
       -0.013457334 0.37863728 -0.6709467 0.018613132
0001c0 99 79 c2 bc 91 58 d5 be 9b 88 55 be 0d 04 d4 3d
       -0.023739623 -0.41669133 -0.20852892 0.10352335
0001d0 c2 5a e4 be 0e 96 b8 3e 15 02 24 3d ba a1 03 bf
       -0.44600493 0.36051983 0.040041048 -0.5141865
0001e0 90 85 16 3d 32 e1 87 be 89 68 b1 be 8b c4 48 3e
       0.03674847 -0.26538998 -0.34650066 0.19606225
0001f0 2a 7d 04 3f ba c2 08 bf 84 83 5a bd 62 fc e3 3d
       0.51753485 -0.5342213 -0.05334808 0.111321226
000200 41 5c d9 be 85 4b 81 3d 65 68 01 bf 31 3d c9 be
       -0.42453197 0.06313232 -0.5054992 -0.39304498
000210 4b d4 9b bd 45 ea 05 3e 07 3c 16 3e 62 88 47 be
       -0.07608851 0.13077648 0.14671336 -0.1948562
000220 34 3d 69 bb 25 d4 28 be ce ac 64 bd a6 ba 00 be
       -0.0035589458 -0.16487177 -0.055828862 -0.125712
000230 20 14 31 3e 29 d3 f9 3d f4 b6 dd bd 46 e5 c3 3d
       0.17292833 0.12198479 -0.10825911 0.09565215
000240 3b e5 21 3d e6 73 a2 3e aa 54 ac be 24 48 ff 3d
       0.03952525 0.31729048 -0.33658344 0.124649316
000250 bd 62 97 bd 79 57 76 be d1 27 94 bd 7a 59 e4 3c
       -0.0739188 -0.24056806 -0.07234157 0.027874697
000260 c8 fc 83 bd d6 f8 9c 3d 70 d8 b3 3d 51 4d d0 bd
       -0.064446986 0.07664649 0.087815166 -0.10170997
000270 d6 39 21 3e a1 c9 87 3e 3f 88 ce 3d 9c f8 e2 3d
       0.15744719 0.26521018 0.10084581 0.11082575
000280 46 38 ee be 92 6c 12 3c 82 0a ca 3e dc a7 c1 be
       -0.46527308 0.008937018 0.39461142 -0.3782338
000290 92 5a df 3d 4b 63 1d be 08 1e 30 bd 97 c8 ad be
       0.10905947 -0.15369909 -0.04299739 -0.339421
0002a0 09 b5 6b 3e ca b6 49 bd b1 73 77 3d 65 a4 5d 3c
       0.23018278 -0.049246587 0.060413066 0.013527964
0002b0 0b 4c ec be a2 c6 9b bc 20 55 df 3d ad 8b cb bd
       -0.46151766 -0.019015614 0.10904908 -0.099387504
0002c0 58 6a a3 3d c5 a3 41 3d 49 c6 52 3e 5e 9d 65 3e
       0.07979268 0.047275323 0.20583452 0.22423312
0002d0 13 54 12 3e 63 c9 ea 3e 2f 2f 25 be 1a 30 87 be
       0.14289884 0.4585677 -0.1613128 -0.26403886
0002e0 a0 a5 1b 3f 04 3c bb 3d ac 77 57 bd 81 15 27 3e
       0.607996 0.091423064 -0.052604362 0.16316797
0002f0 47 f5 7d 3c 27 af 3e 3e 40 5b 52 3e 39 fd 92 3e
       0.015500373 0.18621503 0.20542622 0.2870882
000300 e3 74 c4 be 1d 6d 73 3e d5 29 75 be 09 65 e3 bc
       -0.38370427 0.23772092 -0.23941739 -0.027758138
000310 fd 39 b6 be bf a6 80 be 36 41 2e bc 5f b3 e3 be
       -0.35591117 -0.25127217 -0.010635665 -0.44472787
000320 80 77 82 3e 2a 2c 26 bd dd 42 ce bd d9 b2 12 bf
       0.25481796 -0.040569462 -0.10071347 -0.5730415
000330 5d 51 c9 be cc 4d 5e 3e 6e 67 2a bf 1d 25 14 bf
       -0.39319888 0.21709365 -0.6656407 -0.5786913
000340 00 1e 21 bf 66 4f 10 bf de 62 05 3e 8d 7a 29 be
       -0.629364 -0.5637115 0.13025996 -0.16550656
000350 49 de 17 be fc 5e a9 be 0c af 09 3d f4 c2 20 be
       -0.14830889 -0.3308028 0.033614203 -0.15699369
000360 ff fd 72 3e ce c2 ce be 43 92 3b bb 96 5b 4f be
       0.23729704 -0.40383 -0.0028621114 -0.20249781
000370 bc 2d fe 3e b2 3c 9e 3e c0 34 4c be e2 51 42 bc
       0.49644268 0.30905682 -0.19941998 -0.011860343
000380 d8 c0 e3 3d b7 55 a8 3d 94 73 ea 3d 84 d8 e2 3e
       0.111207664 0.08219474 0.11447826 0.44305813
000390 1a 54 ea 3e e3 af 10 be e1 b1 53 be 77 ad aa be
       0.4576729 -0.14129595 -0.20673324 -0.33335468
0003a0 52 c9 a2 bd d2 ab cf be 7e 39 3d be 67 06 6b 3d
       -0.07948555 -0.40560776 -0.18478963 0.057379153
0003b0 4c 91 c4 be d9 81 8f bc b4 bc cf be fa 26 19 bf
       -0.38392103 -0.01751797 -0.40573657 -0.598251
0003c0 8f ff 9f be 29 4a 70 3e 31 b2 8e bd 21 02 19 3d
       -0.31249663 0.2346579 -0.06967581 0.037355546
0003d0 12 c9 eb be 81 f1 c4 bc d5 12 74 3c 06 50 77 3d
       -0.46051842 -0.02404094 0.014897068 0.06037905
0003e0 51 ed d7 3e 7a a9 ab be 7c 7a 4c be 57 d2 dc bd
       0.42173246 -0.33527738 -0.19968599 -0.10782307
0003f0 3d f0 88 bd 71 24 f4 3d 49 29 aa be d5 64 5a 3e
       -0.06686447 0.11921013 -0.33234623 0.21327527

qz_loga f4 [350]
000000 fe a8 2a c1 e6 a2 8b c1 68 f5 9e c1 14 0a a3 c1
       -10.666258 -17.45454 -19.869827 -20.379921
000010 91 a2 96 c1 5c 51 55 c1 49 79 87 c1 ac a1 91 c1
       -18.829378 -13.332363 -16.934221 -18.203941
000020 a7 bb 85 c1 e9 40 c7 c1 fa 8e b9 c1 cc b9 af c1
       -16.716627 -24.906694 -23.194813 -21.965721
000030 25 3a 9d c1 d1 2b 73 c1 9d 72 a2 c1 66 8c 94 c1
       -19.65339 -15.198197 -20.305964 -18.568554
000040 55 15 a5 c1 a7 de 91 c1 7d c3 8e c1 e6 bf c6 c1
       -20.635416 -18.233717 -17.845453 -24.8437
000050 6a ec 83 c1 11 40 70 c1 30 89 8b c1 37 3c 8c c1
       -16.490437 -15.015641 -17.441986 -17.529402
000060 40 fd 8f c1 31 cf c5 c1 3c 2c b5 c1 0f ef 4d c1
       -17.998657 -24.726168 -22.646599 -12.870864
000070 d3 d3 9e c1 21 7f af c1 41 d5 4a c1 d1 76 a7 c1
       -19.85343 -21.937075 -12.677064 -20.933016
000080 e5 de ba c1 6f b2 ad c1 25 74 85 c1 ce 70 91 c1
       -23.358835 -21.712126 -16.681711 -18.18008
000090 bd bb 46 c1 4c 10 97 c1 a8 90 2b c1 45 b7 9e c1
       -12.420835 -18.882957 -10.722816 -19.839487
0000a0 16 4b 97 c1 98 db 67 c1 36 46 ba c1 7e 02 ab c1
       -18.911663 -14.491112 -23.284283 -21.376217
0000b0 c6 c3 8c c1 b4 36 ab c1 b1 91 c0 c1 1a da b3 c1
       -17.595592 -21.40171 -24.071138 -22.481495
0000c0 6b 9e bc c1 97 39 6b c1 1b 27 88 c1 d2 83 bd c1
       -23.577353 -14.70156 -17.019094 -23.689365
0000d0 24 39 7e c1 e4 c1 90 c1 7d 9e a5 c1 5a e0 87 c1
       -15.88895 -18.094673 -20.702387 -16.984547
0000e0 e8 59 d2 c1 24 80 84 c1 38 ac 90 c1 f8 33 91 c1
       -26.2939 -16.562569 -18.084091 -18.150375
0000f0 ec b1 88 c1 05 9f 88 c1 f6 8d 9e c1 11 12 93 c1
       -17.086876 -17.077646 -19.819317 -18.383821
000100 cc cc bb c1 24 ef d0 c0 96 15 2d c1 b9 56 83 c1
       -23.474998 -6.529192 -10.81777 -16.417345
000110 79 7b bb c1 0b f0 a6 c1 53 6c 73 c1 b1 5c 51 c1
       -23.43529 -20.867208 -15.213946 -13.08513
000120 c9 6b 95 c1 79 3e 63 c1 f1 50 c8 c0 e6 ce 52 c1
       -18.67763 -14.202752 -6.2598805 -13.175512
000130 49 26 38 c1 95 10 54 c1 9d b1 1c c1 5f ab 12 c1
       -11.509347 -13.254048 -9.793363 -9.166839
000140 60 fc 1b c1 7a 9e f0 c0 24 41 26 c1 d3 4a 2c c1
       -9.749115 -7.5193453 -10.390903 -10.768268
000150 56 da db c0 f3 86 20 c1 99 8c 34 c1 99 2d 9c c0
       -6.8704023 -10.032947 -11.284326 -4.880566
000160 47 ae 14 c1 21 7a 35 c1 73 77 d7 c0 5a f5 40 c1
       -9.292548 -11.342317 -6.733331 -12.0599
000170 45 74 fc c0 b5 54 4c c1 e7 ac 0e c1 05 20 20 c1
       -7.889193 -12.77068 -8.9172125 -10.007817
000180 2e 4d 07 c1 0d b8 59 c1 63 74 03 c1 9a 20 2e c1
       -8.456343 -13.607434 -8.215915 -10.882959
000190 59 0f 55 c1 b5 c0 38 c1 fd 8b 35 c1 84 17 20 c1
       -13.316247 -11.547048 -11.346677 -10.005741
0001a0 b6 9a 28 c1 3c c4 4c c1 32 23 46 c1 29 2d 24 c1
       -10.537771 -12.797909 -12.383593 -10.261025
0001b0 10 57 08 c1 2c 04 52 c1 4a 21 40 c1 4d 38 1c c1
       -8.5212555 -13.126019 -12.008127 -9.763745
0001c0 6d 3a 15 c1 5d 12 37 c1 6e 6b 29 c1 4b db 22 c1
       -9.326764 -11.441983 -10.588728 -10.178538
0001d0 6e d7 43 c1 eb 09 22 c1 60 60 4d c1 43 f0 13 c1
       -12.240095 -10.127421 -12.836029 -9.246158
0001e0 8b 5b 10 c1 28 6b 29 c1 53 d7 f0 c0 82 cb 28 c1
       -9.022349 -10.588661 -7.5262847 -10.549685
0001f0 6e 59 31 c1 6b 3d 1d c1 5e b0 43 c1 7d e0 2d c1
       -11.084333 -9.827495 -12.230558 -10.867307
000200 62 4d 46 c1 4d 37 3b c1 d6 54 40 c1 4f d3 43 c1
       -12.393892 -11.701001 -12.020712 -12.239089
000210 30 4a 36 c1 60 79 58 c1 ba b2 46 c1 28 7d 41 c1
       -11.393112 -13.529633 -12.418634 -12.093056
000220 af de 19 c1 ba 17 22 c1 72 f0 38 c1 9f 0e 30 c1
       -9.616866 -10.130793 -11.558702 -11.00357
000230 34 70 38 c1 73 cb 64 c1 2e a3 4d c1 0d 4c 21 c1
       -11.527393 -14.29967 -12.852339 -10.081067
000240 37 41 5d c1 67 49 34 c1 b3 67 35 c1 77 35 64 c1
       -13.828422 -11.2679205 -11.337817 -14.263053
000250 f8 d2 28 c1 16 37 3d c1 5f 2c 45 c1 3d ae 23 c1
       -10.551506 -11.825949 -12.323333 -10.230039
000260 a4 a4 31 c1 d4 6a 44 c1 5b a9 27 c1 76 8e 11 c1
       -11.102695 -12.276081 -10.478847 -9.0972805
000270 a0 c9 0d c1 3d a4 3a c1 f8 23 5d c1 ea ef 5f c1
       -8.861725 -11.665097 -13.821281 -13.996073
000280 97 88 0f c1 6f a1 41 c1 3e 82 31 c1 22 86 29 c1
       -8.970847 -12.1019125 -11.094297 -10.595247
000290 e8 ea 0d c1 c0 25 13 c1 2f dd 39 c1 64 82 14 c1
       -8.86985 -9.196716 -11.6165 -9.281834
0002a0 75 c7 2f c1 c1 76 38 c1 ec 0a 19 c1 aa 19 26 c1
       -10.986196 -11.528993 -9.565166 -10.381266
0002b0 6f 98 17 c1 63 7e 15 c1 08 8d db c0 7f 13 19 c1
       -9.474715 -9.343356 -6.8609657 -9.56726
0002c0 76 6a 25 c1 93 62 24 c1 c4 1b 31 c1 b3 6a 40 c1
       -10.338491 -10.274066 -11.069279 -12.02605
0002d0 4f 58 05 c1 d2 63 29 c1 1e 80 44 c1 00 7c 4d c1
       -8.33406 -10.58687 -12.281279 -12.842773
0002e0 e1 e5 f8 c0 39 c0 2d c1 57 84 37 c1 76 48 34 c1
       -7.7780614 -10.859429 -11.46981 -11.267691
0002f0 85 ac 32 c1 62 c0 1f c1 c7 ec 2a c1 29 c9 2b c1
       -11.167119 -9.984468 -10.682807 -10.736611
000300 42 e4 10 c1 e8 1b 37 c1 77 e0 36 c1 f4 46 13 c1
       -9.055727 -11.444313 -11.429801 -9.204823
000310 d2 dc 3d c1 6e 15 46 c1 3a 0c 1a c1 2d ae 2e c1
       -11.866411 -12.380232 -9.627985 -10.917523
000320 a6 9e 57 c1 7c 79 07 c1 f4 96 28 c1 86 da 10 c1
       -13.476233 -8.467159 -10.536854 -9.05335
000330 83 99 51 c1 23 37 34 c1 84 a8 27 c1 79 9f 46 c1
       -13.099978 -11.263461 -10.4786415 -12.413934
000340 f1 e8 43 c1 1e c1 66 c1 75 73 4a c1 27 12 66 c1
       -12.24437 -14.422148 -12.653188 -14.379432
000350 55 3b 58 c1 57 13 26 c1 ed 9d 46 c1 c3 57 2b c1
       -13.514485 -10.379722 -12.413556 -10.708926
000360 e8 60 1a c1 34 cd 43 c1 59 2c 58 c1 42 b9 19 c1
       -9.648659 -12.237598 -13.510827 -9.607729
000370 bc 4d 0a c1 44 b8 e0 c0 4e 90 dd c0 fa 35 1b c1
       -8.643978 -7.0224934 -6.9238653 -9.700678
000380 41 c6 5c c1 65 96 16 c1 d5 f8 30 c1 dd ca 0c c1
       -13.798402 -9.411717 -11.06075 -8.799527
000390 34 d9 e0 c0 2f ea 3e c1 7c a3 24 c1 21 73 1f c1
       -7.026514 -11.932174 -10.289913 -9.965608
0003a0 f6 30 15 c1 7e 99 fd c0 c3 44 32 c1 c5 03 27 c1
       -9.324453 -7.924987 -11.141788 -10.43842
0003b0 8f be 0a c1 04 5a 21 c1 c3 28 2f c1 cf 35 47 c1
       -8.671523 -10.084476 -10.947452 -12.450637
0003c0 66 34 ee c0 bb eb 1b c1 69 85 5b c1 4d 40 27 c1
       -7.4438963 -9.745051 -13.720071 -10.453198
0003d0 89 08 31 c1 f3 c3 12 c1 53 68 28 c1 1a 22 19 c1
       -11.064584 -9.172839 -10.52547 -9.570826
0003e0 53 3f 2d c1 c5 ce 1e c1 39 f0 36 c1 40 b6 28 c1
       -10.82796 -9.925481 -11.433648 -10.544495
0003f0 54 97 1f c1 7b fc 22 c1 d9 58 18 c1 8b 8e 46 c1
       -9.974445 -10.186641 -9.521691 -12.409801

bias f4 [100]
000000 02 4c 02 be 72 ff eb 3b 40 35 b9 bd 22 5e a9 3c
       -0.12724307 0.0072020823 -0.0904336 0.020674769
000010 13 f8 93 bd e5 c0 5f bd a7 45 ba bb d9 14 c1 3d
       -0.07225051 -0.054627318 -0.0056845727 0.094278045
000020 14 e1 6a 3d 6e 92 c7 bc b8 87 d9 bc 44 22 1c 3e
       0.057343557 -0.024361815 -0.026553974 0.15247446
000030 82 52 1f 3e c9 c8 a3 3d bd 19 58 bb 5b 20 0a bd
       0.15558818 0.07997281 -0.0032974326 -0.033722263
000040 16 18 d6 bd 28 af 5b bc e3 07 29 be 50 02 d7 3d
       -0.10453813 -0.01340846 -0.16506915 0.10498488
000050 f7 76 90 3e c1 87 39 3e 28 25 2e bc 7a bd f1 3d
       0.28215763 0.18118192 -0.010628976 0.11803718
000060 4c a8 f2 bd 51 3e 9f bd 2e ed 8c bc 39 7f ea 3d
       -0.11848506 -0.07775558 -0.01720294 0.11450047
000070 fd be b3 bd 21 11 2f 3e 10 bd fb 3b 0f 43 46 bd
       -0.087766625 0.17096378 0.00768245 -0.048403796
000080 07 7c 2d 3e f9 e2 41 bd be 4f d0 3c 7e c2 47 3d
       0.16941844 -0.0473356 0.025428649 0.048769467
000090 f6 fc 96 3d 33 52 0b 3d 24 33 ab bd 8a 29 3a be
       0.07372467 0.03401394 -0.08359364 -0.18179908
0000a0 57 2b 28 3c de 87 21 3e 5c c5 10 3d 44 5f f2 bb
       0.010264239 0.15774485 0.035344467 -0.0073966105
0000b0 ff b6 94 3c e9 55 0f bc 89 90 04 bc 03 9d 89 bd
       0.018153666 -0.00874851 -0.0080911005 -0.06719401
0000c0 67 e9 1b bd ce 52 ac bd 71 d1 c8 3d 76 6d e8 3d
       -0.038064387 -0.08414231 0.09805573 0.11349003
0000d0 c4 f7 92 3d 4e a4 8b bd 60 43 f4 bc a4 5d 80 bc
       0.07176164 -0.06818448 -0.029817283 -0.015669651
0000e0 35 e9 d8 bc 20 d4 9b 3d 0b c2 9c 3c 06 9c a7 bd
       -0.02647839 0.07608819 0.019135496 -0.08184056
0000f0 de 2b 06 3e 03 03 a8 3d bb a5 bb 3d 01 da ef bc
       0.13102672 0.082036994 0.0916247 -0.029278757
000100 01 e3 9d 3d 53 4a 9c bd 08 72 79 bb 06 89 70 3d
       0.07709313 -0.07631364 -0.0038062353 0.058724426
000110 d1 8c 18 3d 9f 69 c2 bc 9d 91 27 3e b4 a2 7f 3d
       0.037243668 -0.023732005 0.16364141 0.062411025
000120 9e 08 09 be 74 c4 d0 3d 23 2a 76 3d cf 1f dd bc
       -0.13382193 0.101937205 0.06009878 -0.026992707
000130 a1 c2 3b 3c e8 6a 8e 3d 5a 3e ec 3d 53 78 01 bd
       0.011459977 0.069539845 0.1153533 -0.03160889
000140 74 cf f6 3c 5a 6c 0c bc 1d 21 3e 3b c0 45 21 3e
       0.030128218 -0.008570755 0.0029011436 0.15749264
000150 a6 d5 c1 3d 94 ef c4 3c 12 c6 12 bd 09 9b a1 bd
       0.09464578 0.024040021 -0.035833426 -0.07890899
000160 b2 1b 91 3d 5d 6e ce bc 04 79 4e bc e1 50 9b bd
       0.070853606 -0.02519911 -0.012602095 -0.07583786
000170 d7 72 8e 3c 3e 6a 68 3c 9a c4 3d 3c e1 7e 71 3d
       0.017388744 0.014185486 0.011582518 0.05895889
000180 28 cb e2 3d fd ad 13 3c d7 0b e4 3c d7 b7 1d 3d
       0.11073905 0.00901365 0.027837677 0.0385054

weights f4 [100, 100]
000000 f8 21 b6 be 9b 3d 27 40 0e 5e 49 bf eb 77 e1 be
       -0.3557279 2.613135 -0.7865914 -0.44036803
000010 34 ae 66 3f 99 a0 e4 bf 2e 97 c3 3d 2f 7a 82 be
       0.9010956 -1.786151 0.095503196 -0.25483844
000020 7d 1b af be 3f d9 1f 3f 47 c1 1a 3f 79 32 3c bf
       -0.3420066 0.62440866 0.6045117 -0.73514515
000030 dc fd f5 be ff d8 8e 3d 24 55 27 bf fa c6 33 bf
       -0.48045242 0.069749825 -0.6536429 -0.7022549
000040 92 a8 a4 be b5 37 2e bb 2f 12 2f bf 95 f0 80 3f
       -0.3215986 -0.0026583497 -0.6838712 1.007342
000050 4e 4a 0e 3f 98 39 01 3f 03 ac b2 bf 6f 80 02 3f
       0.5558213 0.50478506 -1.3958744 0.50977224
000060 7a 62 a8 bf 76 9b c4 3f cc 6a a0 be 08 b3 e0 3c
       -1.3155053 1.5359943 -0.3133148 0.027429119
000070 53 29 c8 3d 35 b9 95 bf 6c 6b 43 bf d6 b6 de 3f
       0.09773507 -1.1697146 -0.7633579 1.7399547
000080 4c b9 b8 3f 0f 0e ad bf cb 8d 28 c0 c9 b1 01 40
       1.4431548 -1.3519915 -2.6336544 2.0264761
000090 c2 e8 4d be 8c 49 d8 3f 4e 66 75 3f e1 f0 23 be
       -0.20108321 1.6897445 0.9585923 -0.16009857
0000a0 aa 57 7a bf 9c 49 c4 bf 17 67 46 c0 79 1a 06 bf
       -0.97790015 -1.5334964 -3.100042 -0.52384144
0000b0 9b e3 f6 3e e5 1e 44 3f 59 3d 01 3f 74 fa 7a bf
       0.48220524 0.7660964 0.50484234 -0.9803841
0000c0 ae 35 cc 3f b8 31 75 3f 5b 60 14 3f 9f 33 d7 3e
       1.5953882 0.9577899 0.57959527 0.4203157
0000d0 ea c1 cf 3d f9 35 e6 bf 19 a7 a9 bf dc 14 9f bf
       0.10144408 -1.7985221 -1.3254119 -1.2428241
0000e0 9e 3d 00 bf 28 8d 77 3f 25 ad 30 bf b2 ee 08 bf
       -0.5009402 0.9669976 -0.690142 -0.5348922
0000f0 ae 26 db 3e 3f 3f 57 3f 75 bf 81 bc 49 fd c1 bf
       0.42802948 0.8408088 -0.015838364 -1.5155421
000100 9e a3 ec 3e 3f ae d2 bf 67 d3 15 c0 7d 60 b3 be
       0.4621858 -1.6459426 -2.341028 -0.35034552
000110 0f a7 07 c0 6a 43 7c bf 9b 17 46 3f 91 72 8d 3f
       -2.1195714 -0.98540366 0.7737977 1.1050588
000120 c1 53 65 bf 58 67 88 3f 3c 83 b7 3e 59 ff fa bf
       -0.89580923 1.0656538 0.3584231 -1.9609176
000130 20 5e 60 be 20 fe d3 3c 66 7e 96 3d 7f a3 c2 3e
       -0.21910906 0.025878012 0.07348327 0.38015363
000140 b6 ac 3d 3f ee a0 af bf 3c 59 9a bd 6a 9c a2 bc
       0.7409166 -1.3720987 -0.07536551 -0.019849975
000150 eb ac 7c 3d d1 21 62 bf 87 93 fd 3e 99 ff a3 bf
       0.061688345 -0.8833285 0.49526617 -1.2812377
000160 15 6e c1 3f 75 33 8c bd 9b 90 5e 40 59 9a bf be
       1.5111719 -0.06845752 3.477576 -0.37422445
000170 9b 02 0a bf 1f af 5c 3e 13 c7 cb 3e 02 b8 63 bf
       -0.53910226 0.21551178 0.3980032 -0.8895265
000180 e1 65 de 3f f6 aa f5 be d7 7e 94 3d 4b b0 82 3f
       1.7374841 -0.47981995 0.07250755 1.021005
000190 b1 7c 08 bf c8 37 82 3f b3 6c 41 40 56 82 96 bd
       -0.53315264 1.0173273 3.0222595 -0.07349078
0001a0 8f 65 98 3d 85 6a 8f bd 19 02 76 3d 40 e8 66 3e
       0.07441246 -0.07002739 0.060060594 0.22549534
0001b0 0c 28 5f 3e 47 ef 95 bf fc d5 a3 3f a2 95 c7 bf
       0.2179262 -1.1713647 1.2799678 -1.5592539
0001c0 55 53 25 c0 dc f5 db be 40 dc 2c be ae 13 10 3f
       -2.5832112 -0.42961013 -0.16880894 0.5628003
0001d0 9d 66 22 bf f8 9a 6e 3f 30 17 f9 3f 87 6f 74 3e
       -0.63437825 0.93205214 1.9460201 0.2387067
0001e0 08 c7 e9 bf f1 3b 2d be 3c 59 b7 bf 03 bb eb bf
       -1.8263865 -0.16917397 -1.4324107 -1.8416446
0001f0 d8 a9 c7 3e e0 90 89 be 29 20 64 bf e6 da 3d 3d
       0.38996768 -0.26868343 -0.8911157 0.046351336
000200 ed 7e 84 3e a5 ec 0f 40 39 1b b0 bf c8 32 45 40
       0.25878087 2.2488186 -1.3758308 3.0812244
000210 9a eb c7 3f c1 e6 b2 be 6b 22 96 3e b4 0b 00 c0
       1.5618775 -0.34941676 0.29323134 -2.0007143
000220 b4 74 b7 3f 5b 15 ff 3d 85 9e f5 bf 81 86 c9 3e
       1.433249 0.12455245 -1.9189001 0.3936043
000230 d7 5f b7 3f d8 d5 9b bf 4b 35 4a 3f 9a 68 d6 3e
       1.4326123 -1.2174635 0.7898757 0.4187668
000240 f4 b3 a4 be 60 8a b3 3f 8e 97 16 bf 46 ba 3d be
       -0.32168543 1.4026604 -0.58825004 -0.18528089
000250 92 7d d8 3c d0 0d 97 bf 3b 9d 1b 3f 5b c2 0b bf
       0.026427064 -1.180109 0.6078679 -0.5459344
000260 35 44 95 bf b6 81 7e bf 9f 07 f2 bf 2e bc 6b 3e
       -1.166144 -0.99416673 -1.8908576 0.23021004
000270 79 bb 24 bf 5f a4 ba 3e ed f0 6c 3f 21 18 2c 3f
       -0.6434856 0.3645353 0.92555124 0.6722432
000280 27 16 48 bf 3f dc b9 3f f9 d0 42 bf e9 92 3c 3e
       -0.781588 1.4520339 -0.76100117 0.18415417
000290 c0 25 18 3f 80 6e c4 3f b3 3c 82 3f e5 d9 b9 bf
       0.594326 1.5346222 1.0174774 -1.4519621
0002a0 5f 72 87 3f 77 c6 db bf 77 44 9a 3f 3d 6b a0 bf
       1.0581778 -1.7169942 1.2052144 -1.2532727
0002b0 8d 2d 9d bf c1 5f 4a bf 17 a0 a6 3f 33 54 d0 bf
       -1.2279526 -0.7905236 1.3017606 -1.6275696
0002c0 00 42 ef 3d 13 ab 96 bf d2 bc c8 3f 97 69 a1 be
       0.116825104 -1.1770958 1.5682623 -0.3152587
0002d0 a4 74 cf 3f 6e b0 7f 3e c2 1c a6 bf fb c9 51 3f
       1.6207471 0.24969646 -1.2977526 0.8194882
0002e0 f0 3d c6 be b2 8e 7b 3f 55 7d 2f c0 d0 73 75 bf
       -0.3871913 0.9826461 -2.7420247 -0.9587984
0002f0 0d 82 8c bf 4b 1a a0 bf 1e 65 e5 3e 00 86 08 bf
       -1.0977188 -1.2508024 0.4480371 -0.5332947
000300 bd a9 8e 3f 93 b1 c2 be 3c 40 20 c0 3d bb 32 3e
       1.114555 -0.38026103 -2.5039206 0.17454238
000310 86 d6 a3 bd 56 66 74 bf bf bd 23 3f 0d 5c 3a be
       -0.079999015 -0.9546865 0.63961405 -0.18199177
000320 aa 97 39 bf 08 43 33 bd f6 68 1a 3f e8 1c 30 be
       -0.72497046 -0.043765098 0.6031641 -0.17198527
000330 e1 b3 a6 be 45 41 88 be c7 14 08 3f 00 23 52 bf
       -0.32559112 -0.26612297 0.53156704 -0.82084656
000340 05 32 46 be ef ae ff 3c 93 d1 e4 bf c1 77 49 bf
       -0.19355018 0.031211345 -1.7876457 -0.78698355
000350 52 7f 86 bf 7a bd 95 3e 06 e3 40 bf af 36 51 bf
       -1.0507605 0.29246122 -0.7534641 -0.81724066
000360 9a 2c f7 be ee 33 7f 3f 60 f8 46 bf a4 1c 89 bf
       -0.48276216 0.99688613 -0.7772274 -1.0711865
000370 a7 e9 23 3f 0d e8 41 3f f7 65 9f bc 89 a7 9f 3f
       0.640284 0.75744706 -0.0194578 1.2473003
000380 4a 46 30 40 d1 f6 62 3e 35 0b 1f 40 ad b8 2a bf
       2.75429 0.22164465 2.485059 -0.6668804
000390 fe ea 77 3f fa 6d 2f 40 c7 86 65 3e 61 ab 8f be
       0.96842945 2.7410874 0.22414695 -0.2806044
0003a0 20 d8 6e bf ac 56 d9 3f 6e cd f1 3d 70 2c d8 3f
       -0.9329853 1.6979575 0.11806761 1.6888561
0003b0 f8 b4 23 3f e1 f5 13 c0 15 b2 94 3f 48 aa 44 bf
       0.6394801 -2.3118823 1.1616846 -0.7682233
0003c0 ad 1a d5 3e 36 a6 89 3f 59 73 01 3e a1 f1 f2 3e
       0.41621915 1.0753849 0.12641658 0.47449973
0003d0 72 a3 8a be 85 72 7b 3f 6b f2 92 3e 29 e1 ac 3f
       -0.27077824 0.9822162 0.28700575 1.3506213
0003e0 4f 57 54 be 79 2e d9 3e 37 30 e8 3f dd 80 2a bf
       -0.2073643 0.42418268 1.8139714 -0.6660288
0003f0 50 a7 c1 be ed 3c 8e 3e c0 78 95 bf 69 df a3 bf
       -0.37822962 0.27780858 -1.1677475 -1.2802554

qz_loga f4 [100]
000000 db f9 8e c1 32 84 94 c1 a4 8d 93 c1 c6 67 96 c1
       -17.872 -18.564548 -18.44416 -18.80067
000010 c6 8a 89 c1 03 59 90 c1 52 0c 94 c1 11 ce 89 c1
       -17.19276 -18.043463 -18.506016 -17.225618
000020 38 44 93 c1 d1 e0 8e c1 be 45 9c c1 fe d1 a6 c1
       -18.40831 -17.859774 -19.534054 -20.852535
000030 7c d4 95 c1 fd 35 90 c1 95 ff 9f c1 fe c7 8f c1
       -18.728752 -18.026361 -19.999796 -17.972652
000040 e4 51 8e c1 5f 41 92 c1 90 5a 92 c1 79 27 a7 c1
       -17.789986 -18.28192 -18.29422 -20.894274
000050 15 e6 8b c1 01 88 8b c1 b0 f5 92 c1 09 8a 8e c1
       -17.487345 -17.441408 -18.369965 -17.8174
000060 35 7a 92 c1 5d 4d 97 c1 e3 0a da c1 ce 81 8b c1
       -18.309671 -18.912775 -27.255316 -17.438381
000070 1f 51 93 c1 18 2f 90 c1 9d b9 90 c1 6d 83 91 c1
       -18.41461 -18.022995 -18.090631 -18.189173
000080 af 5c 90 c1 5a ca 90 c1 82 a9 91 c1 cc 3e 93 c1
       -18.045256 -18.098804 -18.207767 -18.405663
000090 03 3e 97 c1 af 51 9e c1 e4 d7 9d c1 bf cb 91 c1
       -18.90528 -19.789885 -19.730415 -18.224485
0000a0 98 36 9b c1 10 62 92 c1 d7 62 d1 c1 31 64 88 c1
       -19.401657 -18.297882 -26.173262 -17.048922
0000b0 eb c5 8f c1 5d 84 94 c1 f5 9a 8c c1 43 0d d8 c1
       -17.97164 -18.56463 -17.575663 -27.006475
0000c0 27 ec 98 c1 e8 9b 92 c1 27 66 92 c1 af 04 a7 c1
       -19.115309 -18.326126 -18.29988 -20.877287
0000d0 de e4 91 c1 73 66 96 c1 dd f3 90 c1 8c cf 92 c1
       -18.236752 -18.800024 -18.119074 -18.351341
0000e0 41 54 9e c1 e7 b7 92 c1 54 e4 87 c1 8c d6 d7 c1
       -19.79114 -18.339796 -16.986488 -26.97976
0000f0 fb 6e 98 c1 49 db 96 c1 47 24 8d c1 55 ee 92 c1
       -19.05419 -18.857073 -17.642714 -18.366373
000100 5a b7 8a c1 f8 c6 ba c1 26 a1 91 c1 7b e4 a6 c1
       -17.339527 -23.347153 -18.203686 -20.861563
000110 aa 4e 90 c1 98 aa d1 c1 01 5f 97 c1 12 91 9a c1
       -18.03841 -26.208298 -18.921389 -19.320835
000120 83 88 8f c1 a2 e1 b1 c1 6a d4 8c c1 8b f8 89 c1
       -17.941656 -22.235172 -17.603718 -17.246359
000130 c1 10 82 c1 5e 6b 8e c1 fa ab 97 c1 99 d5 9c c1
       -16.25818 -17.802425 -18.958973 -19.604296
000140 4a 1c a3 c1 04 bd 97 c1 92 30 bb c1 b7 b5 8b c1
       -20.388813 -18.967293 -23.398716 -17.463728
000150 af 10 96 c1 32 a2 96 c1 8a cd d1 c1 72 31 9d c1
       -18.758146 -18.829197 -26.22536 -19.649143
000160 04 e9 9a c1 2d 8f 8d c1 9a 0b 8a c1 1e a8 98 c1
       -19.363777 -17.69491 -17.255665 -19.082088
000170 42 4c 8f c1 e8 79 9d c1 ea ba 97 c1 aa ba 95 c1
       -17.912235 -19.684525 -18.966267 -18.716145
000180 23 23 8c c1 fb 3e 8d c1 db ef 91 c1 a2 70 90 c1
       -17.517157 -17.655752 -18.242117 -18.054996

bias f4 [100]
000000 1b 60 b3 3b a7 2c 1b 3d 3e bf 80 3c e7 45 78 3c
       0.005474103 0.03788438 0.015716191 0.015153385
000010 6f 5e 6b 3d 86 81 19 bd bc e2 a8 3c 55 70 16 3c
       0.057463106 -0.03747704 0.020615928 0.0091820555
000020 c6 73 a0 3c 1e f1 be 3b 6f 82 39 bb 7a bc fc 3c
       0.019586455 0.0058270833 -0.0028306504 0.030851591
000030 aa 7d 11 3d 0f bb b5 bc de 42 1e 3d e4 d8 68 bc
       0.035520233 -0.022183923 0.03863799 -0.014211867
000040 fd 52 3f 3b d4 16 87 bb fd cf 69 bd 1b 34 0c bd
       0.0029193752 -0.0041225944 -0.05708312 -0.03422938
000050 8d 74 77 bc 3f e6 24 3d 3a 8d a1 3b 9d ab 9c bc
       -0.015103471 0.040258642 0.0049301656 -0.0191248
000060 a6 36 c0 3c dc 93 09 bb 30 a5 4b bc eb d4 15 3c
       0.023463558 -0.0020992672 -0.0124295205 0.009145002
000070 58 f1 99 bc 9d 66 30 bc 6e 42 05 3d 47 33 5b 3c
       -0.01879184 -0.010766652 0.032534055 0.013378925
000080 36 2a a7 bc f6 bd c7 3c d8 cb 37 bb c2 2f f8 3c
       -0.02040587 0.024382573 -0.0028045084 0.03029621
000090 fd 62 51 bc 18 14 a8 3b ee 0c 54 3c 99 a3 4a 3c
       -0.012779948 0.0051293485 0.012942536 0.012368106
0000a0 8e ff 26 bd 87 c6 d9 bc 94 aa a0 3c 10 ea f3 3c
       -0.04077106 -0.026583923 0.019612588 0.029774696
0000b0 ae b6 8c bb 63 0b 27 3d 35 b2 cd bc e0 05 70 3c
       -0.004294238 0.040782344 -0.02510939 0.014649838
0000c0 8a a7 36 bc 65 37 4b bc ec 5b dd 3b 58 fe 18 3b
       -0.011148343 -0.012403344 0.0067553427 0.002334496
0000d0 da b7 0a bd fe 12 dd bc 02 8e fa 3c af 77 dd bc
       -0.03386674 -0.026986595 0.030585293 -0.027034609
0000e0 5b 1a d8 bb 30 cf 10 3d 93 e2 a9 bb 7b 2a 56 3c
       -0.0065949387 0.03535384 -0.0051844805 0.013071652
0000f0 d4 f0 42 39 e3 36 1e bb 6a 1d f2 3b 92 ad ed bc
       0.00018590997 -0.0024141602 0.0073887603 -0.029013429
000100 ae b0 4a bc 16 0c fd ba e4 77 b5 bc e4 c0 85 bb
       -0.012371225 -0.001930597 -0.022151895 -0.0040818322
000110 6e 73 6a 3c dd 89 47 3c 11 45 9b bc fa dd 16 3c
       0.014309747 0.012178865 -0.018953832 0.009208197
000120 1e a5 44 bd 01 e7 58 3c 65 4f eb 3c 72 f2 67 bc
       -0.04800903 0.013238669 0.028724382 -0.014156925
000130 6f 64 75 3b c3 c6 b0 3b c7 e3 e1 ba b1 5a 36 3c
       0.0037443896 0.005394788 -0.0017234021 0.011130021
000140 55 6e a4 bb 48 1d 21 3c d7 9b 3f bb 08 b4 c7 3b
       -0.0050180354 0.009833641 -0.0029237175 0.0060944594
000150 24 76 69 3d ab 2a 87 3c 68 ee fb bb 83 7c 37 3c
       0.056997433 0.016499838 -0.0076883323 0.0111991195
000160 0c 9e d6 3c 5a 4b f2 3b 6f 04 52 bd 25 3f 24 ba
       0.02619841 0.0073942365 -0.05127376 -0.0006265513
000170 fe 81 e2 3c f8 cc 50 3a a4 ec df bb 25 a6 4e 3c
       0.027649876 0.0007965113 -0.0068336297 0.012612854
000180 e4 2e 98 bc bb 26 60 bc da a3 32 bc 69 e7 a5 3a
       -0.018577047 -0.013681109 -0.010903323 0.0012657467

weights f4 [100, 350]
000000 83 dd 97 bd 4f 5a af bd f6 11 0c be 8a 24 03 3d
       -0.07415297 -0.08562147 -0.13678727 0.03201727
000010 58 e7 78 be e6 ac 47 3a 7b b5 94 3d ae 6a 0a be
       -0.24307 0.00076170114 0.07261177 -0.13517258
000020 56 20 62 be 98 97 c6 bc 76 6b 37 bb 6b 17 4f bd
       -0.22082648 -0.024242207 -0.0027987636 -0.050559442
000030 9f a1 0b 3e 27 8c e4 bd 7b 6e 2c 3d 1c 4a d6 bd
       0.13635872 -0.111595444 0.04209755 -0.10463354
000040 6b 0a b2 3d 9a 5b c8 bd b3 92 3a be 94 e3 0b 3e
       0.08693393 -0.097830966 -0.18220024 0.13661033
000050 f9 e5 95 bd 47 c1 36 bd 44 88 6f 3e 76 c8 aa 3d
       -0.073192544 -0.044617917 0.23391825 0.08339016
000060 69 cc 13 bd e9 82 20 bd ff 42 a7 3d 50 5d 9b 3d
       -0.036083613 -0.039187346 0.08167075 0.07586157
000070 80 e1 fb 3c 8e c3 3e bd ec c3 98 bd 7d 42 13 be
       0.030747175 -0.046573214 -0.07459244 -0.14380832
000080 bd ca a0 bd 47 98 30 be 8e bf d7 3d 4f 6b 78 3d
       -0.07851169 -0.17245589 0.10534583 0.060649212
000090 fe 45 b1 bd 6e 65 1c be be a3 13 3d c8 c3 eb 3d
       -0.08655928 -0.15273067 0.03604483 0.11511952
0000a0 a6 b4 05 3e 0e c3 1e 3c eb af f9 bd 73 6d 32 be
       0.13057193 0.009690059 -0.12191757 -0.17424564
0000b0 f4 25 04 3e c3 3d c2 bd c1 e3 0d 3e a8 d7 21 be
       0.12905103 -0.09484436 0.13856412 -0.15804923
0000c0 8d b7 24 bd fa 47 6a bd ab 19 f9 bd b8 7d bb bd
       -0.04021411 -0.05719755 -0.12163099 -0.09154838
0000d0 43 28 85 bd 65 c1 9c 3d 71 20 86 bd bb 6c 41 be
       -0.0650182 0.076540746 -0.065491565 -0.18889134
0000e0 52 4d 3e 3e ba 11 de 3b 81 2c 47 bd 1c 2f 25 bd
       0.18584183 0.0067770155 -0.048626427 -0.04032813
0000f0 c7 2d 3e be 1e 98 a4 3d 28 85 f0 bd 3c e7 fa bd
       -0.1857215 0.080368266 -0.117441475 -0.12251136
000100 dd 8c 87 bd 36 dd 15 be 6d ae 6d bd b3 e5 11 3e
       -0.066186644 -0.14635167 -0.058027674 0.1424778
000110 ea ed 14 be 8c 75 7b 3e 29 b4 d0 bd 33 2d a1 bd
       -0.14543882 0.2455656 -0.10190613 -0.07869949
000120 23 90 cd bb 9f 86 88 be 57 31 c3 3e e6 03 7a 3e
       -0.006273286 -0.26665208 0.3812358 0.2441555
000130 3e b4 02 bf 89 cd 43 bf 47 ae 20 3f 52 f4 88 3e
       -0.5105628 -0.76485497 0.62765926 0.26748902
000140 96 f3 ca 3e df cf d8 bd 25 0b 99 bf 49 8c 88 bf
       0.39638966 -0.10586523 -1.1956526 -1.0667812
000150 f4 b1 41 3e a5 e4 99 3e 43 d3 50 3e fc 41 f2 be
       0.1891554 0.30057254 0.2039309 -0.47315967
000160 cc 9f 6d 3f 9b ca 0b 3f ad f9 11 bf 0e 21 36 3e
       0.92821956 0.54606026 -0.570216 0.17786047
000170 0b 3c 8b 3f 53 4c 68 bf b8 54 01 40 08 4a a5 3f
       1.0877699 -0.9074146 2.0207958 1.2913218
000180 39 0b 1f 3d a3 e0 f1 3e ec c7 1a 3e 28 5b c0 3f
       0.038829062 0.47241697 0.15115327 1.5027819
000190 11 45 e9 bd a5 9d be bd 14 bc 5b bf b5 95 a6 3f
       -0.113901265 -0.09307412 -0.8583386 1.3014437
0001a0 39 64 1b 3d f8 e6 d0 bf d1 0d 8e 3f 5f 26 8f be
       0.037937377 -1.6320486 1.1097966 -0.27958962
0001b0 89 31 2f 3f f7 1a 69 bf 2c 48 14 3f 24 78 66 be
       0.6843496 -0.9105677 0.57922626 -0.22506768
0001c0 f9 f1 48 bf c4 4d ed 3d b2 28 0b 3e 95 99 c6 3e
       -0.7849422 0.11587098 0.13589743 0.3878905
0001d0 00 92 52 bf 83 76 89 3d 04 9d cf 3f 9a bb 1d bd
       -0.8225403 0.067120574 1.6219792 -0.03850899
0001e0 b6 ef c8 3f 51 71 a7 3c 0f dd a6 3e 16 01 d3 3f
       1.5698154 0.020439776 0.3259053 1.6484706
0001f0 4c e7 d3 bf 40 f6 c0 be cb c0 54 3f 4f 72 17 bf
       -1.6554961 -0.37687874 0.8310668 -0.59158796
000200 8b 7c 99 3f 46 a1 80 3e 64 18 c9 be 5c 94 86 3e
       1.1991132 0.25123042 -0.3927642 0.26285064
000210 08 50 a6 3f 3c d1 14 3f 84 da 8f bf 2f 81 c5 3f
       1.2993174 0.58131766 -1.1238561 1.5430049
000220 1e b7 c8 3e 86 85 4a 3e 2d 6e 90 bd 06 8f 15 3e
       0.39202207 0.19777498 -0.07052264 0.1460534
000230 71 6e 70 3f 1c 9c a5 bf 67 34 e8 3d e7 58 38 bf
       0.9391852 -1.2938266 0.1133812 -0.72010654
000240 c9 f2 1a bf 75 4d 8c be 76 f7 7a bf c2 6d 7b 3e
       -0.6052671 -0.27402845 -0.98033845 0.24553588
000250 40 c1 89 3f 65 d6 89 3d ec 9b 4f bf 4e 7b e4 3e
       1.07621 0.06730346 -0.8109729 0.44625324
000260 57 ad 2e 3f c9 f0 e4 be 73 b0 5a bf 4a c6 2e 3f
       0.68233246 -0.44714954 -0.8542549 0.68271315
000270 a0 a2 41 3f 84 85 fa 3e b0 d2 7d bf b5 92 e1 be
       0.7563877 0.4892999 -0.9914961 -0.4405724
000280 30 d3 8f 3e c8 28 b6 bd 02 5d a8 be 76 05 be be
       0.2809081 -0.08894497 -0.3288346 -0.3711354
000290 57 95 e8 3f 88 cb b1 3f 4e 24 9d bf ee ee 92 3e
       1.8170575 1.3890238 -1.2276704 0.28697914
0002a0 08 64 e7 3f b8 f0 94 be 1d 14 9e bf b6 9b 94 be
       1.8077402 -0.29089904 -1.2349888 -0.29025048
0002b0 fc 13 94 3d f2 55 02 bf e3 8d 48 bf 11 33 68 bf
       0.07230374 -0.5091239 -0.783415 -0.9070292
0002c0 57 24 73 3e c7 9a fc 3f a3 86 36 be a3 9b 89 3e
       0.23744331 1.9734734 -0.17824797 0.26876554
0002d0 70 38 fb be 80 97 a7 3f 81 50 6d bf 5d 02 9d be
       -0.49066496 1.3093109 -0.92700964 -0.30665866
0002e0 ca cd c6 bd 34 ef af 3f d9 db ce 3e 82 a6 a4 3f
       -0.0970722 1.3744874 0.40402105 1.2863314
0002f0 b5 ac 80 3f 6c 38 4e be 8a 7a b7 bc 04 89 51 be
       1.0052706 -0.2013871 -0.022397298 -0.20462424
000300 4e 32 95 be ac fb 95 be 61 07 6f bf f9 80 99 bf
       -0.29139942 -0.29293573 -0.93370634 -1.1992484
000310 ba 15 8d bf a2 0b 77 bf f4 e2 a3 be e8 28 ce 3d
       -1.1022255 -0.96502125 -0.3200909 0.10066396
000320 5f eb 12 bf 86 d2 60 bf 80 40 e1 3e 55 00 1c bf
       -0.573904 -0.87821233 0.43994522 -0.60938007
000330 80 71 5c 3f 96 6f b5 bf 18 60 8b be 98 51 de be
       0.8611069 -1.4174678 -0.2722175 -0.43421626
000340 f0 df 29 3f 02 14 33 3f d3 50 a2 3e 1f b1 fe be
       0.66357327 0.69952404 0.3170229 -0.49744508
000350 81 0e 1c be c2 a2 72 3f b8 41 a2 3e 2d 37 64 3f
       -0.15239908 0.947796 0.31690764 0.8914669
000360 71 57 da be f6 f3 c5 be be ea 57 be 81 e9 48 bf
       -0.42644837 -0.3866269 -0.21085641 -0.784813
000370 ef 57 7e bf 0a 78 23 bf 49 9f 71 3f e4 c4 01 c0
       -0.99352926 -0.6385504 0.94383675 -2.0276423
000380 ee 6e b0 3f 79 34 16 bf 89 95 2f 3e 78 87 63 bf
       1.3783853 -0.58673817 0.17146887 -0.88878584
000390 e2 38 16 3f cb c2 b6 3e 4a 6a df 3f b5 63 02 3e
       0.58680546 0.3569549 1.7454312 0.12733348
0003a0 66 21 80 bf be b9 04 bf f2 71 97 3b da 67 87 bf
       -1.0010192 -0.5184592 0.0046217376 -1.0578568
0003b0 98 f5 01 c0 00 fb fa bc 07 c6 ac be 70 26 e7 be
       -2.0306149 -0.030637264 -0.33744833 -0.45146513
0003c0 7e 55 3c 3f 20 d8 18 bf 0a e3 ab bf 0e e0 a4 bf
       0.7356795 -0.5970478 -1.3428662 -1.2880876
0003d0 c9 49 94 3d 29 a0 4e be eb 0b 5d 3f ce 24 5a 3f
       0.07240636 -0.20178284 0.8634631 0.8521241
0003e0 1d f5 41 bf 2a 0f 95 bd 1a 16 b4 3f 11 f8 43 3d
       -0.7576464 -0.07278283 1.4069245 0.047843996
0003f0 98 ee 7f bd 7b 68 50 3e 39 f8 38 3e 72 72 14 bf
       -0.0624834 0.20352356 0.1806344 -0.5798713

qz_loga f4 [100]
000000 34 4f a7 c1 64 de a2 c1 6f 8f a8 c1 68 f0 c7 c1
       -20.913673 -20.35859 -21.070036 -24.992386
000010 45 3a d6 c1 45 99 9f c1 9d 0f bf c1 45 a7 aa c1
       -26.778452 -19.949839 -23.882624 -21.331675
000020 f8 a6 a5 c1 d3 02 a4 c1 0c d7 a5 c1 e8 0f a7 c1
       -20.706528 -20.501379 -20.730003 -20.882767
000030 92 74 9a c1 10 c8 bb c1 94 84 a5 c1 9d 5f a6 c1
       -19.30692 -23.472687 -20.689735 -20.796686
000040 05 36 a6 c1 45 bd a7 c1 5c 01 ab c1 33 40 aa c1
       -20.776377 -20.967417 -21.375664 -21.281347
000050 66 65 a4 c1 49 28 c0 c1 f4 c2 a8 c1 6e 96 a3 c1
       -20.549511 -24.01967 -21.095192 -20.448452
000060 a8 ce af c1 28 7f a4 c1 92 1e a9 c1 d0 6b d4 c1
       -21.975906 -20.562088 -21.139927 -26.552643
000070 75 a4 a4 c1 b3 30 a2 c1 de ca ad c1 20 13 a5 c1
       -20.580301 -20.273779 -21.724056 -20.634338
000080 39 79 a6 c1 d4 19 aa c1 8e cb a7 c1 4b d6 b3 c1
       -20.80919 -21.262611 -20.974392 -22.479635
000090 21 30 a4 c1 e3 56 a6 c1 8b d2 a6 c1 f3 b2 a8 c1
       -20.5235 -20.792425 -20.852804 -21.087378
0000a0 b6 6f a0 c1 a4 65 aa c1 8f 99 a4 c1 88 a4 ae c1
       -20.054546 -21.29963 -20.57498 -21.830338
0000b0 2c ac a4 c1 0d 82 a2 c1 cc 11 a4 c1 de 20 a5 c1
       -20.584068 -20.313501 -20.50869 -20.641048
0000c0 f9 65 a6 c1 ff 12 a8 c1 6d 8e a2 c1 ce 1f a7 c1
       -20.799791 -21.009275 -20.319544 -20.89053
0000d0 df 52 ae c1 51 fe a4 c1 fe db a8 c1 0e d8 9f c1
       -21.790464 -20.624178 -21.107418 -19.980495
0000e0 10 57 a6 c1 f8 bc a2 c1 79 e7 a6 c1 1f 8b a5 c1
       -20.792511 -20.34227 -20.863024 -20.69293
0000f0 8f 84 a3 c1 38 11 ac c1 81 be a0 c1 04 a5 a4 c1
       -20.439726 -21.508408 -20.09302 -20.580574
000100 0e dc a6 c1 28 c0 a7 c1 1d 21 cb c1 5b a0 a7 c1
       -20.857449 -20.968826 -25.391169 -20.953299
000110 b4 58 a9 c1 c8 81 a6 c1 42 e9 a8 c1 e7 dc a2 c1
       -21.168312 -20.81337 -21.113895 -20.357862
000120 ef 95 a5 c1 68 74 a6 c1 72 c3 a6 c1 1c c5 ae c1
       -20.69821 -20.806839 -20.845432 -21.846245
000130 cd 29 a8 c1 21 19 a9 c1 f0 bb a5 c1 ca 60 a2 c1
       -21.02041 -21.13727 -20.716766 -20.29726
000140 0b ae b2 c1 4a 37 ad c1 35 13 a4 c1 68 ee a9 c1
       -22.334982 -21.651997 -20.509378 -21.24141
000150 eb 2d cc c1 a4 8c a5 c1 8f c2 a3 c1 24 a7 ad c1
       -25.52242 -20.693672 -20.47 -21.706612
000160 41 fd a6 c1 be 88 ab c1 a0 35 ab c1 25 cd a8 c1
       -20.87366 -21.441769 -21.401184 -21.100168
000170 6e 78 a5 c1 63 e6 a2 c1 34 5e b9 c1 72 9d a1 c1
       -20.683804 -20.362494 -23.170998 -20.201878
000180 4a 0d a5 c1 8c 58 a3 c1 df 3b a8 c1 bf 28 a6 c1
       -20.631489 -20.418236 -21.029234 -20.769896

bias f4 [350]
000000 8d 3b 52 3b 78 c8 8e bb ad a7 ce b9 bf 86 8f 3a
       0.0032078952 -0.004357394 -0.0003941631 0.0010950192
000010 be 7e 30 ba b8 33 0d bb 61 85 30 3a a8 47 b6 ba
       -0.0006732753 -0.002154572 0.0006733742 -0.0013906853
000020 78 35 36 3b 9e 88 06 b9 5b 5e c3 ba 8e 18 b7 3a
       0.0027802866 -0.0001283013 -0.001490544 0.001396911
000030 72 a9 7f 3b c8 60 96 3a 02 c0 83 bb f0 fe 6b ba
       0.003901091 0.0011472935 -0.004020692 -0.0009002527
000040 b4 96 d7 3a 7e 21 88 3a 60 00 73 b9 f0 57 5e b9
       0.0016448111 0.0010385958 -0.00023174426 -0.00021204329
000050 84 ae 03 3a a9 46 0c bb a2 62 d1 ba 1b 8c 81 ba
       0.0005023258 -0.0021404421 -0.001597483 -0.0009883674
000060 bf c9 aa 3a 96 d1 01 3b b3 8a 47 bb c8 bc 52 b9
       0.0013030096 0.001980876 -0.0030447661 -0.00020097487
000070 b3 55 f7 ba ff d1 e2 ba 58 a0 63 b9 7f 08 9d bb
       -0.0018870145 -0.0017305015 -0.0002170814 -0.0047922726
000080 ec 24 55 bb a4 02 75 39 9e fa 5e 3b 04 af 5f bb
       -0.0032523228 0.00023366004 0.0034023891 -0.0034131417
000090 b1 8f 76 3b 32 3d 08 3b da da da 3a 4d 38 18 3b
       0.0037622268 0.0020788428 0.0016697303 0.0023226917
0000a0 84 d1 1c 3b 76 72 ff ba fd 72 02 3b 03 7a ba ba
       0.0023928592 -0.0019489068 0.0019904964 -0.0014227036
0000b0 d0 9b 9f b9 28 04 ea ba bc 5d 04 3b 02 a2 e8 ba
       -0.00030442933 -0.0017854022 0.0020197472 -0.0017748477
0000c0 b0 a7 c7 ba bd 72 ba bb 50 df 2e bb be 53 19 bb
       -0.001523247 -0.0056899474 -0.0026683398 -0.0023395861
0000d0 18 fa 89 bb 98 a8 ee 39 fa 1c 51 3a fc f8 2a 3a
       -0.0042107217 0.0004552051 0.0007977035 0.0006522087
0000e0 59 5f a0 3a 0a 1a 66 3b 47 9d 41 ba 98 21 cf ba
       0.0012235447 0.0035110735 -0.0007385802 -0.0015802858
0000f0 50 db 4f b8 47 ba 0f 39 2a 00 23 3a 4c eb d5 ba
       -4.9556897e-05 0.00013706936 0.0006217981 -0.0016320734
000100 01 6f b4 3a f9 bf 08 3b 2e 41 0d 3b 2d 84 1b 3a
       0.0013765992 0.0020866378 0.0021553743 0.00059324765
000110 b8 36 8f bb f3 65 79 3b 57 ef c9 3b df 77 6a ba
       -0.0043705367 0.0038055151 0.0061625647 -0.0008944254
000120 44 d9 3c 3b cc 31 23 3d 76 58 80 3c 2e 7f a2 bc
       0.0028816024 0.039842412 0.015667181 -0.019836035
000130 54 d2 1d bc 42 e3 78 3d 6c e7 b7 bc 64 38 04 bc
       -0.009632666 0.060763605 -0.022449218 -0.008070085
000140 1f 78 bd bc a1 32 93 bc 05 20 9e 3d db c3 33 bd
       -0.023128567 -0.017968478 0.07720951 -0.043887954
000150 53 bd 99 bb 4c 28 3e bc ea 62 16 bd 88 1e 0c bd
       -0.0046917587 -0.011606287 -0.036715426 -0.034208804
000160 69 f1 55 3b 33 55 6a bb 81 50 07 bd 2f f0 15 bd
       0.0032645112 -0.003575635 -0.03303576 -0.03660601
000170 ae 60 9a 3c 57 46 d5 3b 01 7e b4 bc 5d 08 92 bd
       0.018844929 0.0065086293 -0.02203274 -0.071305014
000180 bb a7 79 bc b2 26 1f bd 06 43 6b bc b3 d9 9f bd
       -0.015237744 -0.038855262 -0.014359241 -0.07805195
000190 bf 56 2b 3c 0a ed 03 bd 3e 5c 4e 3c 31 64 31 bd
       0.010457694 -0.03220848 0.012595234 -0.04330844
0001a0 ef 48 61 3c 7d 7e 04 bd 25 5e a3 3a cf a8 05 3d
       0.013750299 -0.03234719 0.001246397 0.03263169
0001b0 11 54 57 bd 94 94 04 bc c3 91 9c bc f3 96 1c bd
       -0.052570406 -0.008092064 -0.019112473 -0.038229894
0001c0 25 0c 85 bd e7 34 8e bc 2c 77 9e bd 49 37 de 3b
       -0.06496457 -0.01735921 -0.07737574 0.006781493
0001d0 c0 0d a6 3b c7 ec cf bc 23 9a ec 3c 8b e2 d0 3c
       0.005067557 -0.025381459 0.028882092 0.02549865
0001e0 ad 6c 78 bd 11 f3 6a bd f9 76 58 bd 6d c5 fd bc
       -0.060650516 -0.057360712 -0.052847836 -0.030977929
0001f0 08 04 7d 3d f4 0c 59 3c 12 30 9e bc fa f2 33 3c
       0.061771423 0.013247717 -0.019310031 0.010983223
000200 c4 23 af bb 27 17 38 bd 6b c6 3a bd 57 e8 75 bd
       -0.0053448398 -0.044943955 -0.045599382 -0.06003603
000210 aa d6 8f bc d2 fc 41 bd 7c 93 5c 3d a5 c0 d9 3b
       -0.017558414 -0.04736025 0.05385159 0.0066452795
000220 d9 1c c9 bc 74 e0 0a bd 25 e0 b1 3d d7 5d e3 bc
       -0.024549888 -0.03390546 0.0868533 -0.027754707
000230 ae 46 07 3a 52 ad 3f ba 25 ef 0a bd 60 38 2e 3a
       0.00051603734 -0.00073118985 -0.033919472 0.0006645974
000240 02 9a e0 bc 0e 92 7e 3c d1 2a 52 bd 8e 11 cf bc
       -0.027417187 0.015537752 -0.051310364 -0.025276925
000250 b3 92 8c bc 83 46 1f bd 1d d8 d2 bc 87 0f 9c bb
       -0.017159795 -0.038885605 -0.025737816 -0.004762593
000260 01 84 c8 bc 06 9b c2 bc 47 73 8c 3c 05 e1 6e bd
       -0.024477007 -0.023755562 0.017144812 -0.058320064
000270 39 2c 4c bd 32 df 44 bd 87 08 1b 3d 17 20 0f bb
       -0.04984686 -0.048064418 0.03784993 -0.0021839195
000280 fa 74 07 bc 6d 16 22 bd b9 03 39 3d 91 7b 35 bd
       -0.0082676355 -0.03957217 0.045169566 -0.044307295
000290 81 b4 87 bd 7b 06 7e bc 75 e9 be bc da b8 95 bd
       -0.06626225 -0.015504475 -0.02330468 -0.07310648
0002a0 63 5d 92 3c 3c 46 43 bd 18 e5 3f bd 99 c8 bc bc
       0.017866796 -0.047674403 -0.04684934 -0.023044871
0002b0 07 16 94 bc 30 35 3e bc c9 0b a6 bc 55 1f 9a 3b
       -0.01807691 -0.011609361 -0.020269291 0.004703442
0002c0 95 d4 d4 bc 7c 75 74 bc 4e cd cd bb 27 0a 07 bd
       -0.025980273 -0.014920589 -0.0062805777 -0.032968666
0002d0 21 46 f5 bc 89 cf 2a bd 2a ac a9 bc 71 0c 53 3d
       -0.029940667 -0.041701827 -0.020711977 0.051525537
0002e0 fe 1d 3c 3a a9 3b 49 bd b6 64 be bb ca e0 ef bc
       0.00071761 -0.049129162 -0.0058103455 -0.029281992
0002f0 91 47 94 ba e9 51 2c bc 02 31 ca bc 5b 85 09 3d
       -0.0011312832 -0.010517576 -0.024681572 0.033574443
000300 8a ea db 3c 26 ad a4 bb c7 9d cd 3c e8 eb 1a 3d
       0.026845235 -0.0050255237 0.025099648 0.037822634
000310 77 0e 33 3d 27 f4 42 3c 0c df 8c bd 06 31 f4 bc
       0.043714967 0.011899031 -0.0687848 -0.029808532
000320 8e 5a 91 3c e8 5f ca 3c 29 11 70 bd ab 13 24 bc
       0.017743375 0.024703935 -0.058610115 -0.010014455
000330 ec 9c 17 3d 5c 42 00 3c 34 35 29 bc 32 35 71 3b
       0.037014887 0.007828321 -0.010327626 0.0036805389
000340 41 37 2a bd 4b 14 75 3b 39 ba 97 3c fc 4d 12 3d
       -0.0415566 0.0037396129 0.018521415 0.035718903
000350 ce a2 86 3c 11 62 d8 3c f3 40 b2 bc c5 ae 4b bd
       0.016435053 0.02641395 -0.021759486 -0.04972722
000360 0c 13 2d bd db 22 23 3d d6 d2 b6 3c b3 64 68 3d
       -0.042254493 0.039828163 0.022317331 0.05673666
000370 87 07 6a 3d b3 3c 30 3d 0e b6 75 3d b3 39 10 3d
       0.057136085 0.043026637 0.059988074 0.035211276
000380 8c 1e a1 3c de ad a4 3d 0c 57 57 3d 76 14 2a 3d
       0.019667886 0.08040975 0.05257325 0.04152342
000390 31 0b ab 3d 54 7a 2d bd 77 40 d8 bc f6 4a 19 bd
       0.08351744 -0.04235299 -0.026397927 -0.037425004
0003a0 1b b7 65 bc f6 53 3e bd 86 49 4d bc 17 46 b1 3c
       -0.0140207065 -0.04646679 -0.012529736 0.021639867
0003b0 87 42 29 3c ef 9b e3 bc c4 83 1e bc c6 aa 97 3c
       0.010330803 -0.027784316 -0.00967497 0.018514048
0003c0 98 36 3b 3c 3c fc cf bc 27 eb ee 3c 1c a3 fc 3c
       0.01142659 -0.02538883 0.029164864 0.030839495
0003d0 2b 2c 05 3d 4f fb f2 3c c9 6a 04 bd f2 f0 0c bd
       0.032512825 0.029660849 -0.0323284 -0.03440947
0003e0 9b a4 e7 bc b8 33 9f bc e6 fa cf 3b be 5d 20 3d
       -0.028276732 -0.019433841 0.006347048 0.0391519
0003f0 34 d6 e6 3b 00 ac 86 3c fa f5 f6 bc ef 57 ce bc
       0.007044578 0.016439438 -0.030146588 -0.025188414
