ode_net/code/output/_holder_model_to_prune/best_val_model_prods.pt (torch, 170783 bytes, 4 tensors)

bias f4 [40]
0	0xbe04f3b3	-0.12983589
1	0xbe29d866	-0.16586456
2	0xbdd258b7	-0.10270827
3	0xbdd74d0d	-0.10512743
4	0xbd0f9ca8	-0.03506151
5	0xbd97d291	-0.07413209
6	0xbe082c43	-0.13298135
7	0xbe4298dc	-0.19003624
8	0xbdfb556f	-0.122721545
9	0xbe1a7554	-0.1508382
10	0xbe7aeb5c	-0.24503845
11	0xbe156f0a	-0.1459314
12	0xbdcb3ddd	-0.09923909
13	0xbdd1da83	-0.10246756
14	0xbdfef55d	-0.12449143
15	0xbdb42b7f	-0.08797359
16	0xbdf16dad	-0.11788497
17	0xbd8a0149	-0.067385264
18	0xbe765b67	-0.24058305
19	0xbe028c7f	-0.12748908
20	0xbd818301	-0.06323815
21	0xbe1e8a27	-0.15482388
22	0xbd7e2932	-0.062051006
23	0xbe62e203	-0.22156529
24	0xbdf003a4	-0.117194444
25	0xbdbe5c1a	-0.09294911
26	0xbddc7f0f	-0.10766422
27	0xbe0863d2	-0.13319328
28	0xbd9c0baa	-0.07619412
29	0xbdbfae46	-0.09359412
30	0xbe1f3d73	-0.15550785
31	0xbe13aa33	-0.14420395
32	0xbe1936b7	-0.14962278
33	0xbddce824	-0.10786465
34	0xbd581797	-0.052756872
35	0xbdfe6f6d	-0.124235965
36	0xbe1345e7	-0.14382134
37	0xbda5a477	-0.0808801
38	0xbdeca375	-0.115546145
39	0xbe33d1da	-0.17560521

weight_orig f4 [40, 350]
0	0x3e889157	0.26673386
1	0xbdf07168	-0.117403805
2	0x3ebc79bc	0.36811626
3	0x3d738116	0.059449278
4	0x3e779582	0.24178126
5	0xbe995094	-0.2994429
6	0xbaa4cfc9	-0.0012574132
7	0xbca68649	-0.020327704
8	0xbd7477e6	-0.059684657
9	0xbd5e37e6	-0.054252528
10	0x3c96ca4a	0.018407006
11	0xbdf44c77	-0.11928647
12	0xbe6eb8c8	-0.23312676
13	0x3e759566	0.23982772
14	0x3d9e80c4	0.07739404
15	0xbdf6e63e	-0.12055634
16	0xbd2d8fe2	-0.042373545
17	0x3d59cc09	0.0531731
18	0xbcc80307	-0.024415506
19	0xbd21d69b	-0.039511304
20	0x3dff88bc	0.12477252
21	0xbde406f5	-0.111341394
22	0x3e728209	0.23682417
23	0xbe272d3d	-0.16325851
24	0xbdb1da37	-0.08684199
25	0xbdae3b48	-0.08507401
26	0xbe016fcd	-0.12640305
27	0xbca50632	-0.020144556
28	0x3de89ce1	0.11358047
29	0x3e1c7b97	0.15281521
30	0x3dd1de64	0.10247496
31	0x3d5e1390	0.054217875
32	0xbd8531df	-0.06503653
33	0xbce78674	-0.028262354
34	0xbda71d21	-0.08159853
35	0xbd0b082d	-0.033943344
36	0xbed29adf	-0.41133782
37	0xbcb1a589	-0.021685379
38	0x3e07bced	0.13255663
39	0xbbd65be1	-0.0065417145
40	0xbe544827	-0.20730649
41	0xbdb7acf9	-0.08968539
42	0xbd325f0f	-0.043547686
43	0xbe1fa0ba	-0.15588656
44	0xbe6da610	-0.23207879
45	0xbda47ebf	-0.080319874
46	0x3d471b3f	0.04860997
47	0x3ca2d224	0.019875593
48	0xbdc30c03	-0.095237754
49	0xbedd90ac	-0.43274438
50	0xbc89eac7	-0.016835583
51	0x3e22c5a4	0.15895706
52	0x3f00ea49	0.5035749
53	0x3c770913	0.015077847
54	0x3e0ef712	0.13961437
55	0x3dd62a2e	0.10457264
56	0x3e0f40d6	0.13989577
57	0xbe09d645	-0.13460644
58	0x3d0e69a3	0.03476871
59	0xbca75d2b	-0.020430168
60	0x3d9e10d7	0.07718056
61	0x3beadebe	0.007167666
62	0xbe13db67	-0.14439164
63	0xbd834579	-0.06409735
64	0xbca2846e	-0.019838538
65	0xbd71aebd	-0.059004534
66	0xbd784259	-0.06061015
67	0xbddcfcd9	-0.10790414
68	0xbedd1b21	-0.4318476
69	0xbeef6a2e	-0.46760696
70	0xbd9da322	-0.07697131
71	0xbe5bf1e7	-0.21478997
72	0xbeb5b6e4	-0.35491097
73	0x3d59b8fd	0.053154934
74	0x3e0d36ec	0.13790482
75	0x3d8abd84	0.067744285
76	0xbd053a28	-0.032526165
77	0x3d9dc1f3	0.077030085
78	0xbe51e7e0	-0.2049861
79	0xbc70cf3b	-0.014697845
80	0xbd87d007	-0.06631475
81	0x3d2df3de	0.042468898
82	0xbee12b21	-0.43978217
83	0xbd82cc75	-0.06386653
84	0xbd063976	-0.032769643
85	0xbd2eb379	-0.042651627
86	0xbc58e006	-0.013237005
87	0xbdf19bc7	-0.1179729
88	0x3df53591	0.119731076
89	0xbe44ea32	-0.19229963
90	0x3f1677a0	0.58776283
91	0xbca91d41	-0.020643832
92	0xbd48c41f	-0.04901516
93	0xbb5270c9	-0.0032110682
94	0xbe6dacc0	-0.2321043
95	0x3d725dee	0.05917161
96	0xbe9b6793	-0.30352458
97	0x3aae58a1	0.001330156
98	0xbbc77706	-0.0060871867
99	0x3d153aba	0.03643296
100	0xbc1f6830	-0.00972943
101	0x3ca456e9	0.020060973
102	0x3b00f888	0.0019679386
103	0xbb63f8e9	-0.0034785813
104	0xbae5eedd	-0.00175425
105	0x3d09541f	0.03352749
106	0xbc110d74	-0.008853305
107	0x3b963749	0.004584227
108	0x3d1cd7ea	0.03829185
109	0x3c214a4e	0.009844376
110	0x3c2aa1a1	0.010414512
111	0x3d6eb051	0.058273617
112	0x3cb92519	0.022600697
113	0xbcffbf7a	-0.031219233
114	0x3c69f5be	0.014279781
115	0xbd1194a9	-0.035542164
116	0xbc35200c	-0.011055004
117	0x3d5965c5	0.05307557
118	0xbdb3d865	-0.08781508
119	0xbae6e1da	-0.0017614916
120	0x3bd60d12	0.00653232
121	0x3d25d9cb	0.040490907
122	0x3d79bb74	0.060969785
123	0x3d052980	0.03251028
124	0xbc890ac2	-0.016728763
125	0x3cb7b3f8	0.022424683
126	0xbca71600	-0.020396233
127	0x3d12735c	0.035754547
128	0x3c867f56	0.01641814
129	0x3dbf740d	0.09348307
130	0x3d13ad53	0.036053967
131	0x3d2f76ba	0.042837836
132	0x3d3b2594	0.045690134
133	0xb88cdf7a	-6.717346e-05
134	0xbc8b57e2	-0.01700968
135	0x3cc06d7a	0.023489702
136	0x3d1da644	0.03848864
137	0x3caf4c32	0.021398637
138	0xbcd825dd	-0.026385242
139	0xbc26b07d	-0.010173914
140	0xbcc65969	-0.024212556
141	0x3d2937df	0.04131305
142	0xbd3407f6	-0.043952905
143	0x3c62646c	0.013817888
144	0x3c11b5bb	0.008893426
145	0x3d10ed81	0.03538275
146	0x3d56761a	0.052358724
147	0xbcae9758	-0.0213124
148	0x3cd09be7	0.025464965
149	0x3cb2e241	0.021836402
150	0xbc040c84	-0.008059625
151	0x3ca79716	0.020457786
152	0xbc852d7f	-0.016257046
153	0x3d54d65b	0.051962238
154	0x3ca28f15	0.019843617
155	0x3d4d9c7a	0.050198056
156	0x3cc21f7b	0.023696652
157	0x3cb960ac	0.022629105
158	0xbc8ed05f	-0.017433343
159	0xbcbd348e	-0.02309635
160	0x3cd9abf3	0.02657125
161	0x3d4e3874	0.050346807
162	0xbc6d9609	-0.014501103
163	0x3b18921e	0.0023280452
164	0x3b1601a8	0.002288917
165	0xbca3620a	-0.01994421
166	0x3daab637	0.08335536
167	0x3d95df65	0.07318
168	0x3bf322b8	0.0074199103
169	0x3d43637a	0.04770229
170	0x3b571544	0.0032819072
171	0x3bb0d1fb	0.0053961254
172	0x3cdd748c	0.027033113
173	0x3c644d60	0.013934463
174	0xbc1e0c85	-0.00964654
175	0x3c2f13b9	0.010685855
176	0x3c9fa48e	0.019487645
177	0x3c000a2f	0.007814928
178	0x3c106cfc	0.008815046
179	0x3ba57808	0.005049709
180	0x3d0b43ef	0.034000333
181	0x3cf6d14a	0.030129094
182	0x3c22830f	0.009918942
183	0xbc40d078	-0.011768453
184	0xbcc34f80	-0.02384162
185	0xbc18c8cc	-0.009325217
186	0x3c7556f6	0.014974346
187	0x3b37cc53	0.002804537
188	0xbc4b2758	-0.012399517
189	0x3bf693fb	0.007524965
190	0x3cad7c9d	0.021177584
191	0x3cc8e3ea	0.02452274
192	0xbbb91c37	-0.0056491154
193	0xbb50d0a7	-0.0031862648
194	0xbd17bd4d	-0.037045766
195	0xbd5d35fa	-0.054006554
196	0x3c4de448	0.0125666335
197	0x3c108756	0.008821329
198	0x3cb36d65	0.02190275
199	0x3d259da0	0.040433526
200	0x3d0ed3fc	0.034870133
201	0xbc1fd824	-0.009756122
202	0x3c9dce08	0.019263282
203	0x3c45cfd9	0.0120734805
204	0xbe21bccc	-0.15794677
205	0x3c7c9e45	0.015418594
206	0x3c21fe9d	0.009887365
207	0x3ccc7920	0.0249601
208	0x3cbc8db2	0.023016784
209	0x3c760313	0.015015381
210	0xbc67d0fc	-0.014148947
211	0x3c9d5fbd	0.01921069
212	0x3ac1e78d	0.0014793739
213	0xbd875d0c	-0.06609544
214	0x3c46c4ef	0.012131914
215	0x3d1c0d26	0.038098477
216	0x3d03d7eb	0.032188337
217	0xbd157ced	-0.03649609
218	0xbd6fc184	-0.05853416
219	0xbd15cd98	-0.036573023
220	0xbd3a14c7	-0.04542997
221	0xbd0db744	-0.034598604
222	0xbd824133	-0.06360092
223	0xbd268c3d	-0.040661085
224	0x3c81b109	0.015831487
225	0xbc7e3f97	-0.015518091
226	0xbd914945	-0.07094053
227	0xbd1170cc	-0.035507962
228	0xbd578dd6	-0.0526255
229	0xbaa2359d	-0.0012375597
230	0x3d183938	0.037163943
231	0x3c2e39f3	0.010633933
232	0xb9a01c90	-0.0003053886
233	0x3d026702	0.031836517
234	0xbd0db642	-0.034597643
235	0xbc0400dc	-0.0080568455
236	0x3c225178	0.009907119
237	0xbb7b14c7	-0.0038311945
238	0x3a8bfdcc	0.0010680496
239	0xbbd0bbb3	-0.0063700317
240	0x3c890062	0.016723815
241	0x3d05fbd5	0.03271087
242	0x3db857e3	0.09001138
243	0x3c24dfa7	0.0100630885
244	0xbc805430	-0.015665144
245	0x3c2b1bf0	0.010443673
246	0x3d4a332f	0.04936522
247	0x3d20351d	0.039113153
248	0x3c68ccb4	0.014208961
249	0x3d3e5425	0.046466965
250	0xbd1a3da2	-0.037656434
251	0xbd3c4308	-0.045962363
252	0x3c4b14e6	0.012395119
253	0xbc9b9a25	-0.0189944
254	0x3d8de3b3	0.06928196
255	0x3d0ba8cb	0.03409652

weight_mask f4 [40, 350]
0	0x3f800000	1.0
1	0x3f800000	1.0
2	0x3f800000	1.0
3	0x3f800000	1.0
4	0x3f800000	1.0
5	0x3f800000	1.0
6	0x3f800000	1.0
7	0x3f800000	1.0
8	0x3f800000	1.0
9	0x3f800000	1.0
10	0x3f800000	1.0
11	0x3f800000	1.0
12	0x3f800000	1.0
13	0x3f800000	1.0
14	0x3f800000	1.0
15	0x3f800000	1.0
16	0x3f800000	1.0
17	0x3f800000	1.0
18	0x3f800000	1.0
19	0x3f800000	1.0
20	0x3f800000	1.0
21	0x3f800000	1.0
22	0x3f800000	1.0
23	0x3f800000	1.0
24	0x3f800000	1.0
25	0x3f800000	1.0
26	0x3f800000	1.0
27	0x3f800000	1.0
28	0x3f800000	1.0
29	0x3f800000	1.0
30	0x3f800000	1.0
31	0x3f800000	1.0
32	0x3f800000	1.0
33	0x3f800000	1.0
34	0x3f800000	1.0
35	0x3f800000	1.0
36	0x3f800000	1.0
37	0x3f800000	1.0
38	0x3f800000	1.0
39	0x3f800000	1.0
40	0x3f800000	1.0
41	0x3f800000	1.0
42	0x3f800000	1.0
43	0x3f800000	1.0
44	0x3f800000	1.0
45	0x3f800000	1.0
46	0x3f800000	1.0
47	0x3f800000	1.0
48	0x3f800000	1.0
49	0x3f800000	1.0
50	0x3f800000	1.0
51	0x3f800000	1.0
52	0x3f800000	1.0
53	0x3f800000	1.0
54	0x3f800000	1.0
55	0x3f800000	1.0
56	0x3f800000	1.0
57	0x3f800000	1.0
58	0x3f800000	1.0
59	0x3f800000	1.0
60	0x3f800000	1.0
61	0x3f800000	1.0
62	0x3f800000	1.0
63	0x3f800000	1.0
64	0x3f800000	1.0
65	0x3f800000	1.0
66	0x3f800000	1.0
67	0x3f800000	1.0
68	0x3f800000	1.0
69	0x3f800000	1.0
70	0x3f800000	1.0
71	0x3f800000	1.0
72	0x3f800000	1.0
73	0x3f800000	1.0
74	0x3f800000	1.0
75	0x3f800000	1.0
76	0x3f800000	1.0
77	0x3f800000	1.0
78	0x3f800000	1.0
79	0x3f800000	1.0
80	0x3f800000	1.0
81	0x3f800000	1.0
82	0x3f800000	1.0
83	0x3f800000	1.0
84	0x3f800000	1.0
85	0x3f800000	1.0
86	0x3f800000	1.0
87	0x3f800000	1.0
88	0x3f800000	1.0
89	0x3f800000	1.0
90	0x3f800000	1.0
91	0x3f800000	1.0
92	0x3f800000	1.0
93	0x3f800000	1.0
94	0x3f800000	1.0
95	0x3f800000	1.0
96	0x3f800000	1.0
97	0x3f800000	1.0
98	0x3f800000	1.0
99	0x3f800000	1.0
100	0x3f800000	1.0
101	0x3f800000	1.0
102	0x3f800000	1.0
103	0x3f800000	1.0
104	0x3f800000	1.0
105	0x3f800000	1.0
106	0x3f800000	1.0
107	0x3f800000	1.0
108	0x3f800000	1.0
109	0x3f800000	1.0
110	0x3f800000	1.0
111	0x3f800000	1.0
112	0x3f800000	1.0
113	0x3f800000	1.0
114	0x3f800000	1.0
115	0x3f800000	1.0
116	0x3f800000	1.0
117	0x3f800000	1.0
118	0x3f800000	1.0
119	0x3f800000	1.0
120	0x3f800000	1.0
121	0x3f800000	1.0
122	0x3f800000	1.0
123	0x3f800000	1.0
124	0x3f800000	1.0
125	0x3f800000	1.0
126	0x3f800000	1.0
127	0x3f800000	1.0
128	0x3f800000	1.0
129	0x3f800000	1.0
130	0x3f800000	1.0
131	0x3f800000	1.0
132	0x3f800000	1.0
133	0x3f800000	1.0
134	0x3f800000	1.0
135	0x3f800000	1.0
136	0x3f800000	1.0
137	0x3f800000	1.0
138	0x3f800000	1.0
139	0x3f800000	1.0
140	0x3f800000	1.0
141	0x3f800000	1.0
142	0x3f800000	1.0
143	0x3f800000	1.0
144	0x3f800000	1.0
145	0x3f800000	1.0
146	0x3f800000	1.0
147	0x3f800000	1.0
148	0x3f800000	1.0
149	0x3f800000	1.0
150	0x3f800000	1.0
151	0x3f800000	1.0
152	0x3f800000	1.0
153	0x3f800000	1.0
154	0x3f800000	1.0
155	0x3f800000	1.0
156	0x3f800000	1.0
157	0x3f800000	1.0
158	0x3f800000	1.0
159	0x3f800000	1.0
160	0x3f800000	1.0
161	0x3f800000	1.0
162	0x3f800000	1.0
163	0x3f800000	1.0
164	0x3f800000	1.0
165	0x3f800000	1.0
166	0x3f800000	1.0
167	0x3f800000	1.0
168	0x3f800000	1.0
169	0x3f800000	1.0
170	0x3f800000	1.0
171	0x3f800000	1.0
172	0x3f800000	1.0
173	0x3f800000	1.0
174	0x3f800000	1.0
175	0x3f800000	1.0
176	0x3f800000	1.0
177	0x3f800000	1.0
178	0x3f800000	1.0
179	0x3f800000	1.0
180	0x3f800000	1.0
181	0x3f800000	1.0
182	0x3f800000	1.0
183	0x3f800000	1.0
184	0x3f800000	1.0
185	0x3f800000	1.0
186	0x3f800000	1.0
187	0x3f800000	1.0
188	0x3f800000	1.0
189	0x3f800000	1.0
190	0x3f800000	1.0
191	0x3f800000	1.0
192	0x3f800000	1.0
193	0x3f800000	1.0
194	0x3f800000	1.0
195	0x3f800000	1.0
196	0x3f800000	1.0
197	0x3f800000	1.0
198	0x3f800000	1.0
199	0x3f800000	1.0
200	0x3f800000	1.0
201	0x3f800000	1.0
202	0x3f800000	1.0
203	0x3f800000	1.0
204	0x3f800000	1.0
205	0x3f800000	1.0
206	0x3f800000	1.0
207	0x3f800000	1.0
208	0x3f800000	1.0
209	0x3f800000	1.0
210	0x3f800000	1.0
211	0x3f800000	1.0
212	0x3f800000	1.0
213	0x3f800000	1.0
214	0x3f800000	1.0
215	0x3f800000	1.0
216	0x3f800000	1.0
217	0x3f800000	1.0
218	0x3f800000	1.0
219	0x3f800000	1.0
220	0x3f800000	1.0
221	0x3f800000	1.0
222	0x3f800000	1.0
223	0x3f800000	1.0
224	0x3f800000	1.0
225	0x3f800000	1.0
226	0x3f800000	1.0
227	0x3f800000	1.0
228	0x3f800000	1.0
229	0x3f800000	1.0
230	0x3f800000	1.0
231	0x3f800000	1.0
232	0x3f800000	1.0
233	0x3f800000	1.0
234	0x3f800000	1.0
235	0x3f800000	1.0
236	0x3f800000	1.0
237	0x3f800000	1.0
238	0x3f800000	1.0
239	0x3f800000	1.0
240	0x3f800000	1.0
241	0x3f800000	1.0
242	0x3f800000	1.0
243	0x3f800000	1.0
244	0x3f800000	1.0
245	0x3f800000	1.0
246	0x3f800000	1.0
247	0x3f800000	1.0
248	0x3f800000	1.0
249	0x3f800000	1.0
250	0x3f800000	1.0
251	0x3f800000	1.0
252	0x3f800000	1.0
253	0x3f800000	1.0
254	0x3f800000	1.0
255	0x3f800000	1.0

weight f4 [40, 350]
0	0x3e889157	0.26673386
1	0xbdf07168	-0.117403805
2	0x3ebc79bc	0.36811626
3	0x3d738116	0.059449278
4	0x3e779582	0.24178126
5	0xbe995094	-0.2994429
6	0xbaa4cfc9	-0.0012574132
7	0xbca68649	-0.020327704
8	0xbd7477e6	-0.059684657
9	0xbd5e37e6	-0.054252528
10	0x3c96ca4a	0.018407006
11	0xbdf44c77	-0.11928647
12	0xbe6eb8c8	-0.23312676
13	0x3e759566	0.23982772
14	0x3d9e80c4	0.07739404
15	0xbdf6e63e	-0.12055634
16	0xbd2d8fe2	-0.042373545
17	0x3d59cc09	0.0531731
18	0xbcc80307	-0.024415506
19	0xbd21d69b	-0.039511304
20	0x3dff88bc	0.12477252
21	0xbde406f5	-0.111341394
22	0x3e728209	0.23682417
23	0xbe272d3d	-0.16325851
24	0xbdb1da37	-0.08684199
25	0xbdae3b48	-0.08507401
26	0xbe016fcd	-0.12640305
27	0xbca50632	-0.020144556
28	0x3de89ce1	0.11358047
29	0x3e1c7b97	0.15281521
30	0x3dd1de64	0.10247496
31	0x3d5e1390	0.054217875
32	0xbd8531df	-0.06503653
33	0xbce78674	-0.028262354
34	0xbda71d21	-0.08159853
35	0xbd0b082d	-0.033943344
36	0xbed29adf	-0.41133782
37	0xbcb1a589	-0.021685379
38	0x3e07bced	0.13255663
39	0xbbd65be1	-0.0065417145
40	0xbe544827	-0.20730649
41	0xbdb7acf9	-0.08968539
42	0xbd325f0f	-0.043547686
43	0xbe1fa0ba	-0.15588656
44	0xbe6da610	-0.23207879
45	0xbda47ebf	-0.080319874
46	0x3d471b3f	0.04860997
47	0x3ca2d224	0.019875593
48	0xbdc30c03	-0.095237754
49	0xbedd90ac	-0.43274438
50	0xbc89eac7	-0.016835583
51	0x3e22c5a4	0.15895706
52	0x3f00ea49	0.5035749
53	0x3c770913	0.015077847
54	0x3e0ef712	0.13961437
55	0x3dd62a2e	0.10457264
56	0x3e0f40d6	0.13989577
57	0xbe09d645	-0.13460644
58	0x3d0e69a3	0.03476871
59	0xbca75d2b	-0.020430168
60	0x3d9e10d7	0.07718056
61	0x3beadebe	0.007167666
62	0xbe13db67	-0.14439164
63	0xbd834579	-0.06409735
64	0xbca2846e	-0.019838538
65	0xbd71aebd	-0.059004534
66	0xbd784259	-0.06061015
67	0xbddcfcd9	-0.10790414
68	0xbedd1b21	-0.4318476
69	0xbeef6a2e	-0.46760696
70	0xbd9da322	-0.07697131
71	0xbe5bf1e7	-0.21478997
72	0xbeb5b6e4	-0.35491097
73	0x3d59b8fd	0.053154934
74	0x3e0d36ec	0.13790482
75	0x3d8abd84	0.067744285
76	0xbd053a28	-0.032526165
77	0x3d9dc1f3	0.077030085
78	0xbe51e7e0	-0.2049861
79	0xbc70cf3b	-0.014697845
80	0xbd87d007	-0.06631475
81	0x3d2df3de	0.042468898
82	0xbee12b21	-0.43978217
83	0xbd82cc75	-0.06386653
84	0xbd063976	-0.032769643
85	0xbd2eb379	-0.042651627
86	0xbc58e006	-0.013237005
87	0xbdf19bc7	-0.1179729
88	0x3df53591	0.119731076
89	0xbe44ea32	-0.19229963
90	0x3f1677a0	0.58776283
91	0xbca91d41	-0.020643832
92	0xbd48c41f	-0.04901516
93	0xbb5270c9	-0.0032110682
94	0xbe6dacc0	-0.2321043
95	0x3d725dee	0.05917161
96	0xbe9b6793	-0.30352458
97	0x3aae58a1	0.001330156
98	0xbbc77706	-0.0060871867
99	0x3d153aba	0.03643296
100	0xbc1f6830	-0.00972943
101	0x3ca456e9	0.020060973
102	0x3b00f888	0.0019679386
103	0xbb63f8e9	-0.0034785813
104	0xbae5eedd	-0.00175425
105	0x3d09541f	0.03352749
106	0xbc110d74	-0.008853305
107	0x3b963749	0.004584227
108	0x3d1cd7ea	0.03829185
109	0x3c214a4e	0.009844376
110	0x3c2aa1a1	0.010414512
111	0x3d6eb051	0.058273617
112	0x3cb92519	0.022600697
113	0xbcffbf7a	-0.031219233
114	0x3c69f5be	0.014279781
115	0xbd1194a9	-0.035542164
116	0xbc35200c	-0.011055004
117	0x3d5965c5	0.05307557
118	0xbdb3d865	-0.08781508
119	0xbae6e1da	-0.0017614916
120	0x3bd60d12	0.00653232
121	0x3d25d9cb	0.040490907
122	0x3d79bb74	0.060969785
123	0x3d052980	0.03251028
124	0xbc890ac2	-0.016728763
125	0x3cb7b3f8	0.022424683
126	0xbca71600	-0.020396233
127	0x3d12735c	0.035754547
128	0x3c867f56	0.01641814
129	0x3dbf740d	0.09348307
130	0x3d13ad53	0.036053967
131	0x3d2f76ba	0.042837836
132	0x3d3b2594	0.045690134
133	0xb88cdf7a	-6.717346e-05
134	0xbc8b57e2	-0.01700968
135	0x3cc06d7a	0.023489702
136	0x3d1da644	0.03848864
137	0x3caf4c32	0.021398637
138	0xbcd825dd	-0.026385242
139	0xbc26b07d	-0.010173914
140	0xbcc65969	-0.024212556
141	0x3d2937df	0.04131305
142	0xbd3407f6	-0.043952905
143	0x3c62646c	0.013817888
144	0x3c11b5bb	0.008893426
145	0x3d10ed81	0.03538275
146	0x3d56761a	0.052358724
147	0xbcae9758	-0.0213124
148	0x3cd09be7	0.025464965
149	0x3cb2e241	0.021836402
150	0xbc040c84	-0.008059625
151	0x3ca79716	0.020457786
152	0xbc852d7f	-0.016257046
153	0x3d54d65b	0.051962238
154	0x3ca28f15	0.019843617
155	0x3d4d9c7a	0.050198056
156	0x3cc21f7b	0.023696652
157	0x3cb960ac	0.022629105
158	0xbc8ed05f	-0.017433343
159	0xbcbd348e	-0.02309635
160	0x3cd9abf3	0.02657125
161	0x3d4e3874	0.050346807
162	0xbc6d9609	-0.014501103
163	0x3b18921e	0.0023280452
164	0x3b1601a8	0.002288917
165	0xbca3620a	-0.01994421
166	0x3daab637	0.08335536
167	0x3d95df65	0.07318
168	0x3bf322b8	0.0074199103
169	0x3d43637a	0.04770229
170	0x3b571544	0.0032819072
171	0x3bb0d1fb	0.0053961254
172	0x3cdd748c	0.027033113
173	0x3c644d60	0.013934463
174	0xbc1e0c85	-0.00964654
175	0x3c2f13b9	0.010685855
176	0x3c9fa48e	0.019487645
177	0x3c000a2f	0.007814928
178	0x3c106cfc	0.008815046
179	0x3ba57808	0.005049709
180	0x3d0b43ef	0.034000333
181	0x3cf6d14a	0.030129094
182	0x3c22830f	0.009918942
183	0xbc40d078	-0.011768453
184	0xbcc34f80	-0.02384162
185	0xbc18c8cc	-0.009325217
186	0x3c7556f6	0.014974346
187	0x3b37cc53	0.002804537
188	0xbc4b2758	-0.012399517
189	0x3bf693fb	0.007524965
190	0x3cad7c9d	0.021177584
191	0x3cc8e3ea	0.02452274
192	0xbbb91c37	-0.0056491154
193	0xbb50d0a7	-0.0031862648
194	0xbd17bd4d	-0.037045766
195	0xbd5d35fa	-0.054006554
196	0x3c4de448	0.0125666335
197	0x3c108756	0.008821329
198	0x3cb36d65	0.02190275
199	0x3d259da0	0.040433526
200	0x3d0ed3fc	0.034870133
201	0xbc1fd824	-0.009756122
202	0x3c9dce08	0.019263282
203	0x3c45cfd9	0.0120734805
204	0xbe21bccc	-0.15794677
205	0x3c7c9e45	0.015418594
206	0x3c21fe9d	0.009887365
207	0x3ccc7920	0.0249601
208	0x3cbc8db2	0.023016784
209	0x3c760313	0.015015381
210	0xbc67d0fc	-0.014148947
211	0x3c9d5fbd	0.01921069
212	0x3ac1e78d	0.0014793739
213	0xbd875d0c	-0.06609544
214	0x3c46c4ef	0.012131914
215	0x3d1c0d26	0.038098477
216	0x3d03d7eb	0.032188337
217	0xbd157ced	-0.03649609
218	0xbd6fc184	-0.05853416
219	0xbd15cd98	-0.036573023
220	0xbd3a14c7	-0.04542997
221	0xbd0db744	-0.034598604
222	0xbd824133	-0.06360092
223	0xbd268c3d	-0.040661085
224	0x3c81b109	0.015831487
225	0xbc7e3f97	-0.015518091
226	0xbd914945	-0.07094053
227	0xbd1170cc	-0.035507962
228	0xbd578dd6	-0.0526255
229	0xbaa2359d	-0.0012375597
230	0x3d183938	0.037163943
231	0x3c2e39f3	0.010633933
232	0xb9a01c90	-0.0003053886
233	0x3d026702	0.031836517
234	0xbd0db642	-0.034597643
235	0xbc0400dc	-0.0080568455
236	0x3c225178	0.009907119
237	0xbb7b14c7	-0.0038311945
238	0x3a8bfdcc	0.0010680496
239	0xbbd0bbb3	-0.0063700317
240	0x3c890062	0.016723815
241	0x3d05fbd5	0.03271087
242	0x3db857e3	0.09001138
243	0x3c24dfa7	0.0100630885
244	0xbc805430	-0.015665144
245	0x3c2b1bf0	0.010443673
246	0x3d4a332f	0.04936522
247	0x3d20351d	0.039113153
248	0x3c68ccb4	0.014208961
249	0x3d3e5425	0.046466965
250	0xbd1a3da2	-0.037656434
251	0xbd3c4308	-0.045962363
252	0x3c4b14e6	0.012395119
253	0xbc9b9a25	-0.0189944
254	0x3d8de3b3	0.06928196
255	0x3d0ba8cb	0.03409652
