ode_net/code/output/_holder_model_to_prune/best_val_model_sums.pt (torch, 170783 bytes, 4 tensors)

bias f4 [40]
0	0xbc68c48a	-0.014207015
1	0x3d04134f	0.032244977
2	0x3d1d04e3	0.03833474
3	0x3d3479bb	0.044061404
4	0x3dd3d548	0.103434145
5	0xbda30e78	-0.07961744
6	0x3d9c74da	0.07639475
7	0xbde3b850	-0.11119139
8	0x3c32139b	0.010868932
9	0x3d17c589	0.03705362
10	0xbc54c20a	-0.012985716
11	0x3d83734c	0.064184755
12	0x3cc65f91	0.024215491
13	0x3d1b58fe	0.037926666
14	0xbd2c2827	-0.04203048
15	0xbb924230	-0.0044634566
16	0xbd1e1241	-0.038591627
17	0xbd37a608	-0.044836074
18	0xbd778ae2	-0.060435183
19	0x3d806013	0.06268325
20	0x3d9ce823	0.07661464
21	0x3d4ed08c	0.050491855
22	0x3d38682e	0.04502123
23	0x3d71d968	0.059045225
24	0x3d0c6cd5	0.034283478
25	0x3d226f86	0.03965714
26	0x3d0e3dce	0.03472691
27	0x3bcc67e0	0.006237969
28	0x3d183991	0.037164275
29	0xbcf3c45f	-0.029756723
30	0x3d89fc6d	0.067375995
31	0x3d8aec3f	0.067833416
32	0xbcd763ba	-0.02629267
33	0x3dc64a49	0.096821375
34	0xbd153238	-0.036424845
35	0xbd19181d	-0.03737651
36	0xbb39e699	-0.0028366207
37	0x3ced7e57	0.028990908
38	0xbd834e64	-0.06411436
39	0x3ad09cdc	0.0015915888

weight_orig f4 [40, 350]
0	0xbd9d1be8	-0.07671338
1	0xbb4b93e7	-0.0031063498
2	0xbea2252b	-0.31668982
3	0xbbe5f180	-0.0070173144
4	0x3df97866	0.12181167
5	0xbd013ddf	-0.031553145
6	0x3dacc769	0.08436472
7	0xbd8cffb5	-0.0688471
8	0x3c2a65eb	0.010400276
9	0xbd15af65	-0.036544222
10	0x3cbe2d7d	0.02321505
11	0xbdba937b	-0.09110161
12	0x3d8a6e4b	0.06759318
13	0xbca03802	-0.019557957
14	0x3de87550	0.113505006
15	0xbd8ad443	-0.06778767
16	0xbb823974	-0.003974134
17	0x3ec803ef	0.390655
18	0xbe02161f	-0.12703751
19	0xbde27ccc	-0.11058959
20	0xbe1a64a4	-0.15077454
21	0xbd72e798	-0.059302896
22	0xbf2728bd	-0.65296537
23	0x3bbb6732	0.005719089
24	0x3dd8edf7	0.10592263
25	0x3d694d8a	0.056958713
26	0xbd689088	-0.05677846
27	0x3c618301	0.013764144
28	0xbe96c3db	-0.294463
29	0xbd3e1e3e	-0.04641556
30	0x3d1bd033	0.03804035
31	0x3c8bd0d5	0.017067352
32	0xbae19143	-0.0017209429
33	0xbcad8244	-0.02118028
34	0x3dbd0887	0.09230142
35	0xbc9a6f33	-0.018851852
36	0x3b2e3290	0.002658043
37	0xbd69222f	-0.056917366
38	0x3d0ee602	0.03488732
39	0x371fa08e	9.514521e-06
40	0x3e156335	0.14588626
41	0x3dbb27bc	0.09138438
42	0xbdde4703	-0.10853388
43	0x3de6e032	0.112732306
44	0x3dc1f360	0.09470248
45	0x3d077724	0.033072606
46	0xbd2f3248	-0.04277256
47	0x3d009fac	0.031402275
48	0xbced81b4	-0.028992511
49	0xbd82e4b0	-0.06391275
50	0xbd78aa8f	-0.060709532
51	0xba6c6a32	-0.000901851
52	0xbd9ffb31	-0.07811583
53	0xbdc6c7d5	-0.09706084
54	0xbccd582b	-0.025066456
55	0xbb8b18fb	-0.0042449213
56	0xbd03f24b	-0.03221349
57	0xbc9f27e7	-0.019428207
58	0x3ddd2e23	0.107998155
59	0x3e5af0bf	0.213809
60	0xbd1a5588	-0.037679225
61	0xbdea9c73	-0.114556216
62	0x3d71d48a	0.059040584
63	0xbeb6c017	-0.35693428
64	0x3db3c207	0.08777242
65	0x3f97c3b2	1.1856596
66	0x3db6fddc	0.089351386
67	0xbd8f86a0	-0.070080996
68	0xbd0eaf6c	-0.034835264
69	0xbe71d0a8	-0.23614752
70	0x3e5b2476	0.21400627
71	0x3daeca22	0.085346475
72	0xbe223f6f	-0.1584451
73	0xbd3eb3d1	-0.046558205
74	0x3c24457d	0.010026333
75	0xbbb57c29	-0.0055384827
76	0xbd88c80f	-0.06678783
77	0xbc86e310	-0.016465694
78	0x3efb93b7	0.49136135
79	0xbd5403f1	-0.05176157
80	0xbb91fba1	-0.0044550453
81	0x3d72a799	0.059241865
82	0xbe540245	-0.20703991
83	0x3d887dca	0.06664617
84	0xbe7a797a	-0.24460402
85	0x3df6373c	0.12022254
86	0xbda74d45	-0.08169035
87	0xbe326d53	-0.17424516
88	0xbbeedbc6	-0.0072893826
89	0xbea6c286	-0.32570285
90	0x3d29acdc	0.041424617
91	0xbcde7b94	-0.027158536
92	0x3e9431e4	0.28944314
93	0x3d18e33d	0.037326086
94	0xbdf2cca1	-0.11855436
95	0xbd8b4941	-0.068010814
96	0x3ebfa130	0.37427664
97	0xbd02a56f	-0.03189605
98	0x3d843c78	0.06456846
99	0x3b970fcf	0.004610039
100	0x3c5befc7	0.013423867
101	0x3ba9de76	0.00518399
102	0x3d102dda	0.035199977
103	0xbd0e4437	-0.034733023
104	0x3d8121ba	0.06305261
105	0x3cc15072	0.02359793
106	0x3ae24197	0.0017261979
107	0x3db34049	0.08752496
108	0x3bc2bfeb	0.0059432886
109	0xbbcbdf37	-0.0062216776
110	0xbc7d44cd	-0.015458298
111	0x3ca2b655	0.019862333
112	0x3cdfa7a1	0.027301611
113	0xbd62a1de	-0.05533015
114	0x3ca706bb	0.020388952
115	0xbdd823ef	-0.10553729
116	0x3d6388b7	0.055550303
117	0x3b3e14ff	0.0029004214
118	0xbdabd88d	-0.08390913
119	0xbdb652cf	-0.08902513
120	0xbd19b3d5	-0.037525017
121	0xbcc4bc51	-0.024015578
122	0x3c7164a1	0.014733464
123	0x3d33de06	0.04391291
124	0xbb08234e	-0.0020772996
125	0x3d599499	0.05312023
126	0xbd947097	-0.07248037
127	0x3c742283	0.014900806
128	0x3ccfce7d	0.025367016
129	0x3c742fb2	0.01490395
130	0x3b17b84f	0.0023150628
131	0xbd2c67a7	-0.042091038
132	0xbd0d56be	-0.034506552
133	0x3c66b500	0.01408124
134	0x3c43510d	0.0119211795
135	0x3c977785	0.018489609
136	0xbb5a78ea	-0.003333623
137	0xbc49dc44	-0.012320582
138	0xbc628e08	-0.013827808
139	0xbbcf5891	-0.0063276966
140	0xbc9974c4	-0.018732436
141	0x3d9c20e0	0.07623458
142	0x3d14fb1f	0.0363723
143	0x3d771ef0	0.06033224
144	0xbbce6e56	-0.006299774
145	0x3c6cc4fa	0.01445126
146	0x3c0d74fe	0.00863385
147	0x3cbe3ff8	0.023223862
148	0x3c1d5497	0.009602687
149	0xbb4f73e5	-0.0031654772
150	0x3dcb4f9c	0.09927294
151	0x3d564320	0.05231011
152	0xbc302aa7	-0.010752357
153	0x3bcdc6d3	0.006279805
154	0x3cdadd91	0.02671698
155	0x3d9a7b5c	0.0754306
156	0x3d03f3fa	0.032215096
157	0x3c5e9192	0.013584511
158	0x3b430775	0.0029759083
159	0xbcb22521	-0.02174622
160	0xbd373ada	-0.04473386
161	0x3b9b2426	0.004734534
162	0xbce65fab	-0.02812179
163	0x3d301ad8	0.04299435
164	0xbd142511	-0.03616816
165	0x3c067ffe	0.008209227
166	0xbdae4f55	-0.08511225
167	0xbc88f328	-0.016717508
168	0x3cf5698d	0.029957557
169	0x3d0f3fc9	0.03497294
170	0xbd2f5a7a	-0.042810895
171	0x3d007d88	0.031369716
172	0x3d5f4be4	0.054515734
173	0x3d1e2ab5	0.038614947
174	0xbd5a95b9	-0.053365443
175	0x3d19fc05	0.03759386
176	0x3c1e72c3	0.009670916
177	0x3c8ad2af	0.016946165
178	0x3dad7cc4	0.08471063
179	0xbd329d09	-0.04360679
180	0xbd386f8f	-0.045028266
181	0xbd17e7a0	-0.03708613
182	0x3c83fea0	0.016112626
183	0xbc39ed00	-0.011348009
184	0x3c2e3753	0.0106333075
185	0x3c2a74f0	0.010403857
186	0xbd336ee9	-0.043806944
187	0x3d0b6462	0.03403128
188	0x3d676059	0.05648837
189	0x3c92be22	0.017912928
190	0xbc80f70d	-0.015742803
191	0xbda24b89	-0.079245634
192	0x3ce6006e	0.028076377
193	0xbcb9736c	-0.022638045
194	0xbd249815	-0.0401841
195	0x3b9de92f	0.0048190574
196	0x3b12736d	0.002234663
197	0x3a8c8b14	0.0010722601
198	0xbba17829	-0.0049276543
199	0x3cc9b757	0.024623556
200	0x3d9b17d5	0.07572905
201	0xb9aaec17	-0.00032600827
202	0x3c8aaafe	0.016927239
203	0xbd1606f8	-0.03662774
204	0x3c76537f	0.015034555
205	0x3db4f7b9	0.08836312
206	0x3cb23e57	0.021758242
207	0x3df81bdd	0.121146895
208	0x3d2116d5	0.039328415
209	0x3cbef563	0.023310369
210	0x3a5dac1e	0.00084561284
211	0x3d34ad6e	0.044110708
212	0xbd2d0984	-0.042245403
213	0xbc8fcd96	-0.017554086
214	0xbbd92c22	-0.0066275755
215	0x3c127f9e	0.008941559
216	0xbbb5f27a	-0.005552587
217	0x3cc4d8ed	0.02402922
218	0x3a8e9537	0.001087821
219	0x3bb3c971	0.00548666
220	0x3cfda7d8	0.030963823
221	0xbccc6aad	-0.02495321
222	0x3b96851f	0.004593506
223	0xbb8da757	-0.004322927
224	0xbc850fae	-0.016242828
225	0x3d48a332	0.04898376
226	0xbd3b75ee	-0.045766763
227	0xbd34b54e	-0.044118218
228	0x3c2ba852	0.010477142
229	0xbc81d65f	-0.01584929
230	0x3d2d9f85	0.042388458
231	0x3bf7be55	0.007560531
232	0x3d25ae6f	0.040449556
233	0xbd818d1b	-0.06325742
234	0xbd75d906	-0.060021423
235	0x3c9364f1	0.017992469
236	0x3cb7d711	0.022441419
237	0xbc8244dd	-0.015901977
238	0xbc106d10	-0.008815065
239	0x3b763afe	0.0037571783
240	0x3c83de9c	0.01609736
241	0xbd41ea98	-0.047342867
242	0x3d209a10	0.039209425
243	0xbc14bba6	-0.009077942
244	0xbc1a18da	-0.009405339
245	0x3d8ed86d	0.06974874
246	0x3c1e5fde	0.009666411
247	0xbc1184ff	-0.008881806
248	0xbc9a4533	-0.018831825
249	0xbda2079c	-0.079116076
250	0x3d84d2d9	0.064855285
251	0x3cce58e5	0.025188873
252	0x3c28bd41	0.010299028
253	0xbd59a5a9	-0.0531365
254	0xbbc7eec8	-0.006101463
255	0x39c6749e	0.0003785239

weight_mask f4 [40, 350]
0	0x3f800000	1.0
1	0x3f800000	1.0
2	0x3f800000	1.0
3	0x3f800000	1.0
4	0x3f800000	1.0
5	0x3f800000	1.0
6	0x3f800000	1.0
7	0x3f800000	1.0
8	0x3f800000	1.0
9	0x3f800000	1.0
10	0x3f800000	1.0
11	0x3f800000	1.0
12	0x3f800000	1.0
13	0x3f800000	1.0
14	0x3f800000	1.0
15	0x3f800000	1.0
16	0x3f800000	1.0
17	0x3f800000	1.0
18	0x3f800000	1.0
19	0x3f800000	1.0
20	0x3f800000	1.0
21	0x3f800000	1.0
22	0x3f800000	1.0
23	0x3f800000	1.0
24	0x3f800000	1.0
25	0x3f800000	1.0
26	0x3f800000	1.0
27	0x3f800000	1.0
28	0x3f800000	1.0
29	0x3f800000	1.0
30	0x3f800000	1.0
31	0x3f800000	1.0
32	0x3f800000	1.0
33	0x3f800000	1.0
34	0x3f800000	1.0
35	0x3f800000	1.0
36	0x3f800000	1.0
37	0x3f800000	1.0
38	0x3f800000	1.0
39	0x3f800000	1.0
40	0x3f800000	1.0
41	0x3f800000	1.0
42	0x3f800000	1.0
43	0x3f800000	1.0
44	0x3f800000	1.0
45	0x3f800000	1.0
46	0x3f800000	1.0
47	0x3f800000	1.0
48	0x3f800000	1.0
49	0x3f800000	1.0
50	0x3f800000	1.0
51	0x3f800000	1.0
52	0x3f800000	1.0
53	0x3f800000	1.0
54	0x3f800000	1.0
55	0x3f800000	1.0
56	0x3f800000	1.0
57	0x3f800000	1.0
58	0x3f800000	1.0
59	0x3f800000	1.0
60	0x3f800000	1.0
61	0x3f800000	1.0
62	0x3f800000	1.0
63	0x3f800000	1.0
64	0x3f800000	1.0
65	0x3f800000	1.0
66	0x3f800000	1.0
67	0x3f800000	1.0
68	0x3f800000	1.0
69	0x3f800000	1.0
70	0x3f800000	1.0
71	0x3f800000	1.0
72	0x3f800000	1.0
73	0x3f800000	1.0
74	0x3f800000	1.0
75	0x3f800000	1.0
76	0x3f800000	1.0
77	0x3f800000	1.0
78	0x3f800000	1.0
79	0x3f800000	1.0
80	0x3f800000	1.0
81	0x3f800000	1.0
82	0x3f800000	1.0
83	0x3f800000	1.0
84	0x3f800000	1.0
85	0x3f800000	1.0
86	0x3f800000	1.0
87	0x3f800000	1.0
88	0x3f800000	1.0
89	0x3f800000	1.0
90	0x3f800000	1.0
91	0x3f800000	1.0
92	0x3f800000	1.0
93	0x3f800000	1.0
94	0x3f800000	1.0
95	0x3f800000	1.0
96	0x3f800000	1.0
97	0x3f800000	1.0
98	0x3f800000	1.0
99	0x3f800000	1.0
100	0x3f800000	1.0
101	0x3f800000	1.0
102	0x3f800000	1.0
103	0x3f800000	1.0
104	0x3f800000	1.0
105	0x3f800000	1.0
106	0x3f800000	1.0
107	0x3f800000	1.0
108	0x3f800000	1.0
109	0x3f800000	1.0
110	0x3f800000	1.0
111	0x3f800000	1.0
112	0x3f800000	1.0
113	0x3f800000	1.0
114	0x3f800000	1.0
115	0x3f800000	1.0
116	0x3f800000	1.0
117	0x3f800000	1.0
118	0x3f800000	1.0
119	0x3f800000	1.0
120	0x3f800000	1.0
121	0x3f800000	1.0
122	0x3f800000	1.0
123	0x3f800000	1.0
124	0x3f800000	1.0
125	0x3f800000	1.0
126	0x3f800000	1.0
127	0x3f800000	1.0
128	0x3f800000	1.0
129	0x3f800000	1.0
130	0x3f800000	1.0
131	0x3f800000	1.0
132	0x3f800000	1.0
133	0x3f800000	1.0
134	0x3f800000	1.0
135	0x3f800000	1.0
136	0x3f800000	1.0
137	0x3f800000	1.0
138	0x3f800000	1.0
139	0x3f800000	1.0
140	0x3f800000	1.0
141	0x3f800000	1.0
142	0x3f800000	1.0
143	0x3f800000	1.0
144	0x3f800000	1.0
145	0x3f800000	1.0
146	0x3f800000	1.0
147	0x3f800000	1.0
148	0x3f800000	1.0
149	0x3f800000	1.0
150	0x3f800000	1.0
151	0x3f800000	1.0
152	0x3f800000	1.0
153	0x3f800000	1.0
154	0x3f800000	1.0
155	0x3f800000	1.0
156	0x3f800000	1.0
157	0x3f800000	1.0
158	0x3f800000	1.0
159	0x3f800000	1.0
160	0x3f800000	1.0
161	0x3f800000	1.0
162	0x3f800000	1.0
163	0x3f800000	1.0
164	0x3f800000	1.0
165	0x3f800000	1.0
166	0x3f800000	1.0
167	0x3f800000	1.0
168	0x3f800000	1.0
169	0x3f800000	1.0
170	0x3f800000	1.0
171	0x3f800000	1.0
172	0x3f800000	1.0
173	0x3f800000	1.0
174	0x3f800000	1.0
175	0x3f800000	1.0
176	0x3f800000	1.0
177	0x3f800000	1.0
178	0x3f800000	1.0
179	0x3f800000	1.0
180	0x3f800000	1.0
181	0x3f800000	1.0
182	0x3f800000	1.0
183	0x3f800000	1.0
184	0x3f800000	1.0
185	0x3f800000	1.0
186	0x3f800000	1.0
187	0x3f800000	1.0
188	0x3f800000	1.0
189	0x3f800000	1.0
190	0x3f800000	1.0
191	0x3f800000	1.0
192	0x3f800000	1.0
193	0x3f800000	1.0
194	0x3f800000	1.0
195	0x3f800000	1.0
196	0x3f800000	1.0
197	0x3f800000	1.0
198	0x3f800000	1.0
199	0x3f800000	1.0
200	0x3f800000	1.0
201	0x3f800000	1.0
202	0x3f800000	1.0
203	0x3f800000	1.0
204	0x3f800000	1.0
205	0x3f800000	1.0
206	0x3f800000	1.0
207	0x3f800000	1.0
208	0x3f800000	1.0
209	0x3f800000	1.0
210	0x3f800000	1.0
211	0x3f800000	1.0
212	0x3f800000	1.0
213	0x3f800000	1.0
214	0x3f800000	1.0
215	0x3f800000	1.0
216	0x3f800000	1.0
217	0x3f800000	1.0
218	0x3f800000	1.0
219	0x3f800000	1.0
220	0x3f800000	1.0
221	0x3f800000	1.0
222	0x3f800000	1.0
223	0x3f800000	1.0
224	0x3f800000	1.0
225	0x3f800000	1.0
226	0x3f800000	1.0
227	0x3f800000	1.0
228	0x3f800000	1.0
229	0x3f800000	1.0
230	0x3f800000	1.0
231	0x3f800000	1.0
232	0x3f800000	1.0
233	0x3f800000	1.0
234	0x3f800000	1.0
235	0x3f800000	1.0
236	0x3f800000	1.0
237	0x3f800000	1.0
238	0x3f800000	1.0
239	0x3f800000	1.0
240	0x3f800000	1.0
241	0x3f800000	1.0
242	0x3f800000	1.0
243	0x3f800000	1.0
244	0x3f800000	1.0
245	0x3f800000	1.0
246	0x3f800000	1.0
247	0x3f800000	1.0
248	0x3f800000	1.0
249	0x3f800000	1.0
250	0x3f800000	1.0
251	0x3f800000	1.0
252	0x3f800000	1.0
253	0x3f800000	1.0
254	0x3f800000	1.0
255	0x3f800000	1.0

weight f4 [40, 350]
0	0xbd9d1be8	-0.07671338
1	0xbb4b93e7	-0.0031063498
2	0xbea2252b	-0.31668982
3	0xbbe5f180	-0.0070173144
4	0x3df97866	0.12181167
5	0xbd013ddf	-0.031553145
6	0x3dacc769	0.08436472
7	0xbd8cffb5	-0.0688471
8	0x3c2a65eb	0.010400276
9	0xbd15af65	-0.036544222
10	0x3cbe2d7d	0.02321505
11	0xbdba937b	-0.09110161
12	0x3d8a6e4b	0.06759318
13	0xbca03802	-0.019557957
14	0x3de87550	0.113505006
15	0xbd8ad443	-0.06778767
16	0xbb823974	-0.003974134
17	0x3ec803ef	0.390655
18	0xbe02161f	-0.12703751
19	0xbde27ccc	-0.11058959
20	0xbe1a64a4	-0.15077454
21	0xbd72e798	-0.059302896
22	0xbf2728bd	-0.65296537
23	0x3bbb6732	0.005719089
24	0x3dd8edf7	0.10592263
25	0x3d694d8a	0.056958713
26	0xbd689088	-0.05677846
27	0x3c618301	0.013764144
28	0xbe96c3db	-0.294463
29	0xbd3e1e3e	-0.04641556
30	0x3d1bd033	0.03804035
31	0x3c8bd0d5	0.017067352
32	0xbae19143	-0.0017209429
33	0xbcad8244	-0.02118028
34	0x3dbd0887	0.09230142
35	0xbc9a6f33	-0.018851852
36	0x3b2e3290	0.002658043
37	0xbd69222f	-0.056917366
38	0x3d0ee602	0.03488732
39	0x371fa08e	9.514521e-06
40	0x3e156335	0.14588626
41	0x3dbb27bc	0.09138438
42	0xbdde4703	-0.10853388
43	0x3de6e032	0.112732306
44	0x3dc1f360	0.09470248
45	0x3d077724	0.033072606
46	0xbd2f3248	-0.04277256
47	0x3d009fac	0.031402275
48	0xbced81b4	-0.028992511
49	0xbd82e4b0	-0.06391275
50	0xbd78aa8f	-0.060709532
51	0xba6c6a32	-0.000901851
52	0xbd9ffb31	-0.07811583
53	0xbdc6c7d5	-0.09706084
54	0xbccd582b	-0.025066456
55	0xbb8b18fb	-0.0042449213
56	0xbd03f24b	-0.03221349
57	0xbc9f27e7	-0.019428207
58	0x3ddd2e23	0.107998155
59	0x3e5af0bf	0.213809
60	0xbd1a5588	-0.037679225
61	0xbdea9c73	-0.114556216
62	0x3d71d48a	0.059040584
63	0xbeb6c017	-0.35693428
64	0x3db3c207	0.08777242
65	0x3f97c3b2	1.1856596
66	0x3db6fddc	0.089351386
67	0xbd8f86a0	-0.070080996
68	0xbd0eaf6c	-0.034835264
69	0xbe71d0a8	-0.23614752
70	0x3e5b2476	0.21400627
71	0x3daeca22	0.085346475
72	0xbe223f6f	-0.1584451
73	0xbd3eb3d1	-0.046558205
74	0x3c24457d	0.010026333
75	0xbbb57c29	-0.0055384827
76	0xbd88c80f	-0.06678783
77	0xbc86e310	-0.016465694
78	0x3efb93b7	0.49136135
79	0xbd5403f1	-0.05176157
80	0xbb91fba1	-0.0044550453
81	0x3d72a799	0.059241865
82	0xbe540245	-0.20703991
83	0x3d887dca	0.06664617
84	0xbe7a797a	-0.24460402
85	0x3df6373c	0.12022254
86	0xbda74d45	-0.08169035
87	0xbe326d53	-0.17424516
88	0xbbeedbc6	-0.0072893826
89	0xbea6c286	-0.32570285
90	0x3d29acdc	0.041424617
91	0xbcde7b94	-0.027158536
92	0x3e9431e4	0.28944314
93	0x3d18e33d	0.037326086
94	0xbdf2cca1	-0.11855436
95	0xbd8b4941	-0.068010814
96	0x3ebfa130	0.37427664
97	0xbd02a56f	-0.03189605
98	0x3d843c78	0.06456846
99	0x3b970fcf	0.004610039
100	0x3c5befc7	0.013423867
101	0x3ba9de76	0.00518399
102	0x3d102dda	0.035199977
103	0xbd0e4437	-0.034733023
104	0x3d8121ba	0.06305261
105	0x3cc15072	0.02359793
106	0x3ae24197	0.0017261979
107	0x3db34049	0.08752496
108	0x3bc2bfeb	0.0059432886
109	0xbbcbdf37	-0.0062216776
110	0xbc7d44cd	-0.015458298
111	0x3ca2b655	0.019862333
112	0x3cdfa7a1	0.027301611
113	0xbd62a1de	-0.05533015
114	0x3ca706bb	0.020388952
115	0xbdd823ef	-0.10553729
116	0x3d6388b7	0.055550303
117	0x3b3e14ff	0.0029004214
118	0xbdabd88d	-0.08390913
119	0xbdb652cf	-0.08902513
120	0xbd19b3d5	-0.037525017
121	0xbcc4bc51	-0.024015578
122	0x3c7164a1	0.014733464
123	0x3d33de06	0.04391291
124	0xbb08234e	-0.0020772996
125	0x3d599499	0.05312023
126	0xbd947097	-0.07248037
127	0x3c742283	0.014900806
128	0x3ccfce7d	0.025367016
129	0x3c742fb2	0.01490395
130	0x3b17b84f	0.0023150628
131	0xbd2c67a7	-0.042091038
132	0xbd0d56be	-0.034506552
133	0x3c66b500	0.01408124
134	0x3c43510d	0.0119211795
135	0x3c977785	0.018489609
136	0xbb5a78ea	-0.003333623
137	0xbc49dc44	-0.012320582
138	0xbc628e08	-0.013827808
139	0xbbcf5891	-0.0063276966
140	0xbc9974c4	-0.018732436
141	0x3d9c20e0	0.07623458
142	0x3d14fb1f	0.0363723
143	0x3d771ef0	0.06033224
144	0xbbce6e56	-0.006299774
145	0x3c6cc4fa	0.01445126
146	0x3c0d74fe	0.00863385
147	0x3cbe3ff8	0.023223862
148	0x3c1d5497	0.009602687
149	0xbb4f73e5	-0.0031654772
150	0x3dcb4f9c	0.09927294
151	0x3d564320	0.05231011
152	0xbc302aa7	-0.010752357
153	0x3bcdc6d3	0.006279805
154	0x3cdadd91	0.02671698
155	0x3d9a7b5c	0.0754306
156	0x3d03f3fa	0.032215096
157	0x3c5e9192	0.013584511
158	0x3b430775	0.0029759083
159	0xbcb22521	-0.02174622
160	0xbd373ada	-0.04473386
161	0x3b9b2426	0.004734534
162	0xbce65fab	-0.02812179
163	0x3d301ad8	0.04299435
164	0xbd142511	-0.03616816
165	0x3c067ffe	0.008209227
166	0xbdae4f55	-0.08511225
167	0xbc88f328	-0.016717508
168	0x3cf5698d	0.029957557
169	0x3d0f3fc9	0.03497294
170	0xbd2f5a7a	-0.042810895
171	0x3d007d88	0.031369716
172	0x3d5f4be4	0.054515734
173	0x3d1e2ab5	0.038614947
174	0xbd5a95b9	-0.053365443
175	0x3d19fc05	0.03759386
176	0x3c1e72c3	0.009670916
177	0x3c8ad2af	0.016946165
178	0x3dad7cc4	0.08471063
179	0xbd329d09	-0.04360679
180	0xbd386f8f	-0.045028266
181	0xbd17e7a0	-0.03708613
182	0x3c83fea0	0.016112626
183	0xbc39ed00	-0.011348009
184	0x3c2e3753	0.0106333075
185	0x3c2a74f0	0.010403857
186	0xbd336ee9	-0.043806944
187	0x3d0b6462	0.03403128
188	0x3d676059	0.05648837
189	0x3c92be22	0.017912928
190	0xbc80f70d	-0.015742803
191	0xbda24b89	-0.079245634
192	0x3ce6006e	0.028076377
193	0xbcb9736c	-0.022638045
194	0xbd249815	-0.0401841
195	0x3b9de92f	0.0048190574
196	0x3b12736d	0.002234663
197	0x3a8c8b14	0.0010722601
198	0xbba17829	-0.0049276543
199	0x3cc9b757	0.024623556
200	0x3d9b17d5	0.07572905
201	0xb9aaec17	-0.00032600827
202	0x3c8aaafe	0.016927239
203	0xbd1606f8	-0.03662774
204	0x3c76537f	0.015034555
205	0x3db4f7b9	0.08836312
206	0x3cb23e57	0.021758242
207	0x3df81bdd	0.121146895
208	0x3d2116d5	0.039328415
209	0x3cbef563	0.023310369
210	0x3a5dac1e	0.00084561284
211	0x3d34ad6e	0.044110708
212	0xbd2d0984	-0.042245403
213	0xbc8fcd96	-0.017554086
214	0xbbd92c22	-0.0066275755
215	0x3c127f9e	0.008941559
216	0xbbb5f27a	-0.005552587
217	0x3cc4d8ed	0.02402922
218	0x3a8e9537	0.001087821
219	0x3bb3c971	0.00548666
220	0x3cfda7d8	0.030963823
221	0xbccc6aad	-0.02495321
222	0x3b96851f	0.004593506
223	0xbb8da757	-0.004322927
224	0xbc850fae	-0.016242828
225	0x3d48a332	0.04898376
226	0xbd3b75ee	-0.045766763
227	0xbd34b54e	-0.044118218
228	0x3c2ba852	0.010477142
229	0xbc81d65f	-0.01584929
230	0x3d2d9f85	0.042388458
231	0x3bf7be55	0.007560531
232	0x3d25ae6f	0.040449556
233	0xbd818d1b	-0.06325742
234	0xbd75d906	-0.060021423
235	0x3c9364f1	0.017992469
236	0x3cb7d711	0.022441419
237	0xbc8244dd	-0.015901977
238	0xbc106d10	-0.008815065
239	0x3b763afe	0.0037571783
240	0x3c83de9c	0.01609736
241	0xbd41ea98	-0.047342867
242	0x3d209a10	0.039209425
243	0xbc14bba6	-0.009077942
244	0xbc1a18da	-0.009405339
245	0x3d8ed86d	0.06974874
246	0x3c1e5fde	0.009666411
247	0xbc1184ff	-0.008881806
248	0xbc9a4533	-0.018831825
249	0xbda2079c	-0.079116076
250	0x3d84d2d9	0.064855285
251	0x3cce58e5	0.025188873
252	0x3c28bd41	0.010299028
253	0xbd59a5a9	-0.0531365
254	0xbbc7eec8	-0.006101463
255	0x39c6749e	0.0003785239
