ode_net/code/output/_holder_model_to_prune/best_val_model_alpha_comb_sums.pt (torch, 170275 bytes, 3 tensors)

weight_orig f4 [350, 40]
0	0xb821251e	-3.841996e-05
1	0xb8d02cc9	-9.926555e-05
2	0xb8bd786c	-9.0346526e-05
3	0xb815c978	-3.5712e-05
4	0xb7306e30	-1.05160725e-05
5	0xb81a98df	-3.6858833e-05
6	0xb8b14ab4	-8.453932e-05
7	0xb8951ac5	-7.10986e-05
8	0xb7efc8ad	-2.8584467e-05
9	0x378de1c8	1.6913647e-05
10	0x383ed28a	4.549561e-05
11	0xb8b61afc	-8.6834625e-05
12	0x3715688a	8.905432e-06
13	0x382a8d03	4.0662486e-05
14	0xb584fde4	-9.908658e-07
15	0x395dd9f6	0.00021157399
16	0xb85aaaab	-5.2134197e-05
17	0xb65dfdbe	-3.3079264e-06
18	0xb9399dc5	-0.00017701749
19	0xb86a22dc	-5.5822413e-05
20	0xb7242b26	-9.785208e-06
21	0xb896f6c6	-7.1985225e-05
22	0xb8a235de	-7.7347955e-05
23	0x391fc5f0	0.00015237159
24	0x38ab3872	8.164429e-05
25	0x39205b51	0.00015292807
26	0x38a4e775	7.8632416e-05
27	0x390c3427	0.00013370869
28	0xb88b37c2	-6.638422e-05
29	0x38a3a8a4	7.8038574e-05
30	0xb6b0b684	-5.2664564e-06
31	0xb9300922	-0.0001678807
32	0xb8cbb037	-9.712617e-05
33	0x3823832d	3.8984395e-05
34	0xb6dc73da	-6.569998e-06
35	0xb7db6395	-2.6153206e-05
36	0xb8266752	-3.967371e-05
37	0xb79addb1	-1.8461464e-05
38	0x388005fd	6.104631e-05
39	0x387fcb95	6.098634e-05
40	0xbe5e7493	-0.21724157
41	0x3e07ec28	0.1327368
42	0x3e145ed0	0.14489293
43	0xbe8557d9	-0.26043585
44	0x3c4e938e	0.012608422
45	0xbbd6f6d0	-0.006560184
46	0xbdf877e0	-0.12132239
47	0x3e30c433	0.17262344
48	0x3ddc7a32	0.107654944
49	0xbc08d32d	-0.0083511295
50	0x3b852dbe	0.004064291
51	0xbe81a31f	-0.25319764
52	0x3da80613	0.082042836
53	0xbdc4549d	-0.09586451
54	0xbf0f1ea6	-0.5590614
55	0x3ea56b84	0.3230859
56	0x3e020fa6	0.12701282
57	0xbe5b1bec	-0.2139737
58	0x3d09d31e	0.033648603
59	0xbb3339f0	-0.0027347766
60	0x3c0282a7	0.00796572
61	0x3d5e2c62	0.054241545
62	0xbd0d8416	-0.034549795
63	0xbd72f3c3	-0.0593145
64	0x3e0d65d8	0.13808382
65	0x3ecfacf0	0.40561628
66	0xbe6635b7	-0.22481428
67	0x3ea7fbf3	0.3280941
68	0xbda5f1f9	-0.08102793
69	0xbe26c6d7	-0.16286789
70	0x3e6c8118	0.2309612
71	0x3d45fe36	0.048338138
72	0xbc8aaafc	-0.016927235
73	0x3de319b2	0.11088885
74	0x3eba1efd	0.36351767
75	0xbe02d704	-0.12777334
76	0xbe4520d4	-0.19250804
77	0x3e0d257a	0.13783827
78	0xbec21dab	-0.3791326
79	0x3e6d761c	0.23189586
80	0xbd144151	-0.036195103
81	0x3d612389	0.05496553
82	0xbe147556	-0.14497885
83	0x3e96c28f	0.2944531
84	0xbe8d29c2	-0.2757092
85	0xbde8e320	-0.11371446
86	0x3d981f32	0.07427825
87	0xbf101678	-0.56284285
88	0x3da09d74	0.07842532
89	0xbcc9d824	-0.024639197
90	0xbd141d09	-0.036160503
91	0x3e1942b3	0.1496685
92	0xbc6f79ca	-0.014616439
93	0x3d677939	0.05651209
94	0x3e10a3ef	0.14125036
95	0x3e62ff28	0.22167647
96	0xbc4857d9	-0.012227976
97	0xbe87cb37	-0.26522228
98	0x3d9cd1e1	0.07657219
99	0x3e73d4ed	0.23811693
100	0x3d8c31aa	0.0684541
101	0xbd44a4fb	-0.0480089
102	0x3ddee63a	0.10883756
103	0x3ba648d0	0.005074598
104	0xbe93f456	-0.2889735
105	0xbd0d09cd	-0.034433175
106	0x3e2fb70b	0.17159669
107	0xbdbfbfda	-0.09362765
108	0x3d97cccc	0.07412109
109	0x3e21a142	0.15784171
110	0x3ccee84f	0.025257258
111	0xbda113ae	-0.07865082
112	0x3ce910d6	0.02845041
113	0x3e2a400c	0.16625994
114	0x3e62262a	0.22084871
115	0x3cd08d4e	0.025458004
116	0x3dd10434	0.1020588
117	0xbdaa405f	-0.08313059
118	0xbe8c6a4f	-0.27424857
119	0x3e8642f9	0.2622297
120	0x3d2a17fc	0.04152678
121	0xbea311df	-0.31849572
122	0x3ddd1518	0.10795039
123	0x3ea90732	0.33013302
124	0xbf03152c	-0.5120418
125	0x3d80b6ba	0.06284852
126	0xbebd20c9	-0.36939076
127	0x3e884a88	0.26619363
128	0x3e5f30cf	0.21795963
129	0x3d768bc9	0.060191903
130	0xbe1bd932	-0.15219572
131	0x3ce61ec9	0.028090851
132	0xbb6e9ccb	-0.0036409374
133	0x3e56ff5c	0.2099585
134	0xbd5f2a41	-0.054483656
135	0xbe302e27	-0.17205106
136	0x3e3f1c00	0.18663025
137	0xbe696a10	-0.22794366
138	0x3da6c58a	0.08143146
139	0xbe323df7	-0.1740645
140	0x3e0c5327	0.13703595
141	0xbee4e5a0	-0.4470644
142	0x3eaebd16	0.34128636
143	0xbed18470	-0.40921354
144	0xbe8c943c	-0.27456844
145	0x3ef81d06	0.48459643
146	0xbdc2691b	-0.094927035
147	0x3ec914a4	0.3927356
148	0xbe56500c	-0.20928973
149	0x3e028a43	0.12748055
150	0xbd889544	-0.06669095
151	0xbd855c3f	-0.06511735
152	0xbd3cfa64	-0.04613723
153	0x3cafae7d	0.021445507
154	0xbe1f4377	-0.1555308
155	0xbe8478b5	-0.25873342
156	0xbeab8dbf	-0.3350658
157	0x3e8287c3	0.25494203
158	0xbe2403a1	-0.1601701
159	0xbecf1843	-0.40448198
160	0xb80a3a79	-3.295622e-05
161	0xb88c4b07	-6.689695e-05
162	0xb8474ed6	-4.751872e-05
163	0xb70acb99	-8.272845e-06
164	0xb790ef18	-1.7277474e-05
165	0xb71e5640	-9.4376155e-06
166	0xb83e96ec	-4.5440087e-05
167	0x351b62eb	5.7885944e-07
168	0x382d4d1f	4.131824e-05
169	0xb59c57cb	-1.1648457e-06
170	0x387acf16	5.979751e-05
171	0xb8647f78	-5.447815e-05
172	0x3763743e	1.3557319e-05
173	0x37e4f6bb	2.729461e-05
174	0x3818d40a	3.64371e-05
175	0x3889af9d	6.5653796e-05
176	0xb88655db	-6.40561e-05
177	0xb7c32880	-2.326467e-05
178	0xb8b5e214	-8.672863e-05
179	0xb8469368	-4.734416e-05
180	0x37f949ae	2.9717423e-05
181	0xb83ca219	-4.4973658e-05
182	0xb82b3ffb	-4.0829163e-05
183	0x382e741a	4.159296e-05
184	0x38b0fc1b	8.439292e-05
185	0x386f089b	5.6990055e-05
186	0x388fb9fd	6.8534144e-05
187	0x38c95b2d	9.60141e-05
188	0xb6c29241	-5.7986767e-06
189	0x369257ac	4.3613454e-06
190	0xb84a9d34	-4.830696e-05
191	0xb8945d53	-7.074573e-05
192	0xb80fd8e8	-3.4295866e-05
193	0xb784633a	-1.5781832e-05
194	0x3808b7ed	3.259622e-05
195	0xb4d490b4	-3.9593363e-07
196	0xb894497d	-7.070878e-05
197	0x369e7e65	4.723481e-06
198	0x389d564e	7.502419e-05
199	0xb74769ea	-1.1885984e-05
200	0x35e78620	1.7249877e-06
201	0x359c79e6	1.1658383e-06
202	0x359b472b	1.1569113e-06
203	0x354fa5e7	7.735493e-07
204	0xb5aeda02	-1.3027459e-06
205	0x355afa38	8.1575445e-07
206	0x361d9691	2.3482464e-06
207	0x354d987e	7.6590356e-07
208	0xb61852c9	-2.2697952e-06
209	0xb5810676	-9.613129e-07
210	0xb5ce68e1	-1.537872e-06
211	0x3664611c	3.4031173e-06
212	0xb4882786	-2.536073e-07
213	0xb633d0f6	-2.679471e-06
214	0x360773eb	2.018404e-06
215	0xb683f8d2	-3.9330707e-06
216	0x3642b59e	2.9013968e-06
217	0x342e7f98	1.6251431e-07
218	0x3672d6eb	3.6185909e-06
219	0xb4fdb300	-4.7255162e-07
220	0xb5cf9980	-1.5467376e-06
221	0x360d43bc	2.1050064e-06
222	0x34f1bb00	4.5025809e-07
223	0xb6a78337	-4.9922633e-06
224	0xb5fcaf68	-1.8826513e-06
225	0xb659065e	-3.2339226e-06
226	0xb626f589	-2.4878848e-06
227	0xb6309104	-2.6310454e-06
228	0x35969dea	1.122183e-06
229	0xb59091c1	-1.0771256e-06
230	0xb5210348	-5.998195e-07
231	0x36162bfe	2.2377349e-06
232	0x34cfd878	3.8714256e-07
233	0xb444647a	-1.8290476e-07
234	0x35c40472	1.4604432e-06
235	0x3495fbd6	2.7936647e-07
236	0x356ef5bb	8.9019494e-07
237	0x3487fe71	2.533084e-07
238	0xb59b628c	-1.1577081e-06
239	0xb5190eb0	-5.7018315e-07
240	0x3131d368	2.587706e-09
241	0xb275d72b	-1.43098005e-08
242	0xb131eb17	-2.5890523e-09
243	0xb14ad9bd	-2.9518639e-09
244	0xb2648f1f	-1.3303889e-08
245	0xb1468cfb	-2.889293e-09
246	0xb26ab9fd	-1.36628815e-08
247	0x322b9b35	9.9888e-09
248	0xb19e82a4	-4.6132573e-09
249	0xb1b22c52	-5.1855205e-09
250	0xb1caffa2	-5.908036e-09
251	0xb28bfba3	-1.629616e-08
252	0x3151d2b4	3.0533274e-09
253	0xb02c7a28	-6.274683e-10
254	0xb017e450	-5.525793e-10
255	0x3285f915	1.5596507e-08

weight_mask f4 [350, 40]
0	0x3f800000	1.0
1	0x3f800000	1.0
2	0x3f800000	1.0
3	0x3f800000	1.0
4	0x3f800000	1.0
5	0x3f800000	1.0
6	0x3f800000	1.0
7	0x3f800000	1.0
8	0x3f800000	1.0
9	0x3f800000	1.0
10	0x3f800000	1.0
11	0x3f800000	1.0
12	0x3f800000	1.0
13	0x3f800000	1.0
14	0x3f800000	1.0
15	0x3f800000	1.0
16	0x3f800000	1.0
17	0x3f800000	1.0
18	0x3f800000	1.0
19	0x3f800000	1.0
20	0x3f800000	1.0
21	0x3f800000	1.0
22	0x3f800000	1.0
23	0x3f800000	1.0
24	0x3f800000	1.0
25	0x3f800000	1.0
26	0x3f800000	1.0
27	0x3f800000	1.0
28	0x3f800000	1.0
29	0x3f800000	1.0
30	0x3f800000	1.0
31	0x3f800000	1.0
32	0x3f800000	1.0
33	0x3f800000	1.0
34	0x3f800000	1.0
35	0x3f800000	1.0
36	0x3f800000	1.0
37	0x3f800000	1.0
38	0x3f800000	1.0
39	0x3f800000	1.0
40	0x3f800000	1.0
41	0x3f800000	1.0
42	0x3f800000	1.0
43	0x3f800000	1.0
44	0x3f800000	1.0
45	0x3f800000	1.0
46	0x3f800000	1.0
47	0x3f800000	1.0
48	0x3f800000	1.0
49	0x3f800000	1.0
50	0x3f800000	1.0
51	0x3f800000	1.0
52	0x3f800000	1.0
53	0x3f800000	1.0
54	0x3f800000	1.0
55	0x3f800000	1.0
56	0x3f800000	1.0
57	0x3f800000	1.0
58	0x3f800000	1.0
59	0x3f800000	1.0
60	0x3f800000	1.0
61	0x3f800000	1.0
62	0x3f800000	1.0
63	0x3f800000	1.0
64	0x3f800000	1.0
65	0x3f800000	1.0
66	0x3f800000	1.0
67	0x3f800000	1.0
68	0x3f800000	1.0
69	0x3f800000	1.0
70	0x3f800000	1.0
71	0x3f800000	1.0
72	0x3f800000	1.0
73	0x3f800000	1.0
74	0x3f800000	1.0
75	0x3f800000	1.0
76	0x3f800000	1.0
77	0x3f800000	1.0
78	0x3f800000	1.0
79	0x3f800000	1.0
80	0x3f800000	1.0
81	0x3f800000	1.0
82	0x3f800000	1.0
83	0x3f800000	1.0
84	0x3f800000	1.0
85	0x3f800000	1.0
86	0x3f800000	1.0
87	0x3f800000	1.0
88	0x3f800000	1.0
89	0x3f800000	1.0
90	0x3f800000	1.0
91	0x3f800000	1.0
92	0x3f800000	1.0
93	0x3f800000	1.0
94	0x3f800000	1.0
95	0x3f800000	1.0
96	0x3f800000	1.0
97	0x3f800000	1.0
98	0x3f800000	1.0
99	0x3f800000	1.0
100	0x3f800000	1.0
101	0x3f800000	1.0
102	0x3f800000	1.0
103	0x3f800000	1.0
104	0x3f800000	1.0
105	0x3f800000	1.0
106	0x3f800000	1.0
107	0x3f800000	1.0
108	0x3f800000	1.0
109	0x3f800000	1.0
110	0x3f800000	1.0
111	0x3f800000	1.0
112	0x3f800000	1.0
113	0x3f800000	1.0
114	0x3f800000	1.0
115	0x3f800000	1.0
116	0x3f800000	1.0
117	0x3f800000	1.0
118	0x3f800000	1.0
119	0x3f800000	1.0
120	0x3f800000	1.0
121	0x3f800000	1.0
122	0x3f800000	1.0
123	0x3f800000	1.0
124	0x3f800000	1.0
125	0x3f800000	1.0
126	0x3f800000	1.0
127	0x3f800000	1.0
128	0x3f800000	1.0
129	0x3f800000	1.0
130	0x3f800000	1.0
131	0x3f800000	1.0
132	0x3f800000	1.0
133	0x3f800000	1.0
134	0x3f800000	1.0
135	0x3f800000	1.0
136	0x3f800000	1.0
137	0x3f800000	1.0
138	0x3f800000	1.0
139	0x3f800000	1.0
140	0x3f800000	1.0
141	0x3f800000	1.0
142	0x3f800000	1.0
143	0x3f800000	1.0
144	0x3f800000	1.0
145	0x3f800000	1.0
146	0x3f800000	1.0
147	0x3f800000	1.0
148	0x3f800000	1.0
149	0x3f800000	1.0
150	0x3f800000	1.0
151	0x3f800000	1.0
152	0x3f800000	1.0
153	0x3f800000	1.0
154	0x3f800000	1.0
155	0x3f800000	1.0
156	0x3f800000	1.0
157	0x3f800000	1.0
158	0x3f800000	1.0
159	0x3f800000	1.0
160	0x3f800000	1.0
161	0x3f800000	1.0
162	0x3f800000	1.0
163	0x3f800000	1.0
164	0x3f800000	1.0
165	0x3f800000	1.0
166	0x3f800000	1.0
167	0x3f800000	1.0
168	0x3f800000	1.0
169	0x3f800000	1.0
170	0x3f800000	1.0
171	0x3f800000	1.0
172	0x3f800000	1.0
173	0x3f800000	1.0
174	0x3f800000	1.0
175	0x3f800000	1.0
176	0x3f800000	1.0
177	0x3f800000	1.0
178	0x3f800000	1.0
179	0x3f800000	1.0
180	0x3f800000	1.0
181	0x3f800000	1.0
182	0x3f800000	1.0
183	0x3f800000	1.0
184	0x3f800000	1.0
185	0x3f800000	1.0
186	0x3f800000	1.0
187	0x3f800000	1.0
188	0x3f800000	1.0
189	0x3f800000	1.0
190	0x3f800000	1.0
191	0x3f800000	1.0
192	0x3f800000	1.0
193	0x3f800000	1.0
194	0x3f800000	1.0
195	0x3f800000	1.0
196	0x3f800000	1.0
197	0x3f800000	1.0
198	0x3f800000	1.0
199	0x3f800000	1.0
200	0x3f800000	1.0
201	0x3f800000	1.0
202	0x3f800000	1.0
203	0x3f800000	1.0
204	0x3f800000	1.0
205	0x3f800000	1.0
206	0x3f800000	1.0
207	0x3f800000	1.0
208	0x3f800000	1.0
209	0x3f800000	1.0
210	0x3f800000	1.0
211	0x3f800000	1.0
212	0x3f800000	1.0
213	0x3f800000	1.0
214	0x3f800000	1.0
215	0x3f800000	1.0
216	0x3f800000	1.0
217	0x3f800000	1.0
218	0x3f800000	1.0
219	0x3f800000	1.0
220	0x3f800000	1.0
221	0x3f800000	1.0
222	0x3f800000	1.0
223	0x3f800000	1.0
224	0x3f800000	1.0
225	0x3f800000	1.0
226	0x3f800000	1.0
227	0x3f800000	1.0
228	0x3f800000	1.0
229	0x3f800000	1.0
230	0x3f800000	1.0
231	0x3f800000	1.0
232	0x3f800000	1.0
233	0x3f800000	1.0
234	0x3f800000	1.0
235	0x3f800000	1.0
236	0x3f800000	1.0
237	0x3f800000	1.0
238	0x3f800000	1.0
239	0x3f800000	1.0
240	0x3f800000	1.0
241	0x3f800000	1.0
242	0x3f800000	1.0
243	0x3f800000	1.0
244	0x3f800000	1.0
245	0x3f800000	1.0
246	0x3f800000	1.0
247	0x3f800000	1.0
248	0x3f800000	1.0
249	0x3f800000	1.0
250	0x3f800000	1.0
251	0x3f800000	1.0
252	0x3f800000	1.0
253	0x3f800000	1.0
254	0x3f800000	1.0
255	0x3f800000	1.0

weight f4 [350, 40]
0	0xb821251e	-3.841996e-05
1	0xb8d02cc9	-9.926555e-05
2	0xb8bd786c	-9.0346526e-05
3	0xb815c978	-3.5712e-05
4	0xb7306e30	-1.05160725e-05
5	0xb81a98df	-3.6858833e-05
6	0xb8b14ab4	-8.453932e-05
7	0xb8951ac5	-7.10986e-05
8	0xb7efc8ad	-2.8584467e-05
9	0x378de1c8	1.6913647e-05
10	0x383ed28a	4.549561e-05
11	0xb8b61afc	-8.6834625e-05
12	0x3715688a	8.905432e-06
13	0x382a8d03	4.0662486e-05
14	0xb584fde4	-9.908658e-07
15	0x395dd9f6	0.00021157399
16	0xb85aaaab	-5.2134197e-05
17	0xb65dfdbe	-3.3079264e-06
18	0xb9399dc5	-0.00017701749
19	0xb86a22dc	-5.5822413e-05
20	0xb7242b26	-9.785208e-06
21	0xb896f6c6	-7.1985225e-05
22	0xb8a235de	-7.7347955e-05
23	0x391fc5f0	0.00015237159
24	0x38ab3872	8.164429e-05
25	0x39205b51	0.00015292807
26	0x38a4e775	7.8632416e-05
27	0x390c3427	0.00013370869
28	0xb88b37c2	-6.638422e-05
29	0x38a3a8a4	7.8038574e-05
30	0xb6b0b684	-5.2664564e-06
31	0xb9300922	-0.0001678807
32	0xb8cbb037	-9.712617e-05
33	0x3823832d	3.8984395e-05
34	0xb6dc73da	-6.569998e-06
35	0xb7db6395	-2.6153206e-05
36	0xb8266752	-3.967371e-05
37	0xb79addb1	-1.8461464e-05
38	0x388005fd	6.104631e-05
39	0x387fcb95	6.098634e-05
40	0xbe5e7493	-0.21724157
41	0x3e07ec28	0.1327368
42	0x3e145ed0	0.14489293
43	0xbe8557d9	-0.26043585
44	0x3c4e938e	0.012608422
45	0xbbd6f6d0	-0.006560184
46	0xbdf877e0	-0.12132239
47	0x3e30c433	0.17262344
48	0x3ddc7a32	0.107654944
49	0xbc08d32d	-0.0083511295
50	0x3b852dbe	0.004064291
51	0xbe81a31f	-0.25319764
52	0x3da80613	0.082042836
53	0xbdc4549d	-0.09586451
54	0xbf0f1ea6	-0.5590614
55	0x3ea56b84	0.3230859
56	0x3e020fa6	0.12701282
57	0xbe5b1bec	-0.2139737
58	0x3d09d31e	0.033648603
59	0xbb3339f0	-0.0027347766
60	0x3c0282a7	0.00796572
61	0x3d5e2c62	0.054241545
62	0xbd0d8416	-0.034549795
63	0xbd72f3c3	-0.0593145
64	0x3e0d65d8	0.13808382
65	0x3ecfacf0	0.40561628
66	0xbe6635b7	-0.22481428
67	0x3ea7fbf3	0.3280941
68	0xbda5f1f9	-0.08102793
69	0xbe26c6d7	-0.16286789
70	0x3e6c8118	0.2309612
71	0x3d45fe36	0.048338138
72	0xbc8aaafc	-0.016927235
73	0x3de319b2	0.11088885
74	0x3eba1efd	0.36351767
75	0xbe02d704	-0.12777334
76	0xbe4520d4	-0.19250804
77	0x3e0d257a	0.13783827
78	0xbec21dab	-0.3791326
79	0x3e6d761c	0.23189586
80	0xbd144151	-0.036195103
81	0x3d612389	0.05496553
82	0xbe147556	-0.14497885
83	0x3e96c28f	0.2944531
84	0xbe8d29c2	-0.2757092
85	0xbde8e320	-0.11371446
86	0x3d981f32	0.07427825
87	0xbf101678	-0.56284285
88	0x3da09d74	0.07842532
89	0xbcc9d824	-0.024639197
90	0xbd141d09	-0.036160503
91	0x3e1942b3	0.1496685
92	0xbc6f79ca	-0.014616439
93	0x3d677939	0.05651209
94	0x3e10a3ef	0.14125036
95	0x3e62ff28	0.22167647
96	0xbc4857d9	-0.012227976
97	0xbe87cb37	-0.26522228
98	0x3d9cd1e1	0.07657219
99	0x3e73d4ed	0.23811693
100	0x3d8c31aa	0.0684541
101	0xbd44a4fb	-0.0480089
102	0x3ddee63a	0.10883756
103	0x3ba648d0	0.005074598
104	0xbe93f456	-0.2889735
105	0xbd0d09cd	-0.034433175
106	0x3e2fb70b	0.17159669
107	0xbdbfbfda	-0.09362765
108	0x3d97cccc	0.07412109
109	0x3e21a142	0.15784171
110	0x3ccee84f	0.025257258
111	0xbda113ae	-0.07865082
112	0x3ce910d6	0.02845041
113	0x3e2a400c	0.16625994
114	0x3e62262a	0.22084871
115	0x3cd08d4e	0.025458004
116	0x3dd10434	0.1020588
117	0xbdaa405f	-0.08313059
118	0xbe8c6a4f	-0.27424857
119	0x3e8642f9	0.2622297
120	0x3d2a17fc	0.04152678
121	0xbea311df	-0.31849572
122	0x3ddd1518	0.10795039
123	0x3ea90732	0.33013302
124	0xbf03152c	-0.5120418
125	0x3d80b6ba	0.06284852
126	0xbebd20c9	-0.36939076
127	0x3e884a88	0.26619363
128	0x3e5f30cf	0.21795963
129	0x3d768bc9	0.060191903
130	0xbe1bd932	-0.15219572
131	0x3ce61ec9	0.028090851
132	0xbb6e9ccb	-0.0036409374
133	0x3e56ff5c	0.2099585
134	0xbd5f2a41	-0.054483656
135	0xbe302e27	-0.17205106
136	0x3e3f1c00	0.18663025
137	0xbe696a10	-0.22794366
138	0x3da6c58a	0.08143146
139	0xbe323df7	-0.1740645
140	0x3e0c5327	0.13703595
141	0xbee4e5a0	-0.4470644
142	0x3eaebd16	0.34128636
143	0xbed18470	-0.40921354
144	0xbe8c943c	-0.27456844
145	0x3ef81d06	0.48459643
146	0xbdc2691b	-0.094927035
147	0x3ec914a4	0.3927356
148	0xbe56500c	-0.20928973
149	0x3e028a43	0.12748055
150	0xbd889544	-0.06669095
151	0xbd855c3f	-0.06511735
152	0xbd3cfa64	-0.04613723
153	0x3cafae7d	0.021445507
154	0xbe1f4377	-0.1555308
155	0xbe8478b5	-0.25873342
156	0xbeab8dbf	-0.3350658
157	0x3e8287c3	0.25494203
158	0xbe2403a1	-0.1601701
159	0xbecf1843	-0.40448198
160	0xb80a3a79	-3.295622e-05
161	0xb88c4b07	-6.689695e-05
162	0xb8474ed6	-4.751872e-05
163	0xb70acb99	-8.272845e-06
164	0xb790ef18	-1.7277474e-05
165	0xb71e5640	-9.4376155e-06
166	0xb83e96ec	-4.5440087e-05
167	0x351b62eb	5.7885944e-07
168	0x382d4d1f	4.131824e-05
169	0xb59c57cb	-1.1648457e-06
170	0x387acf16	5.979751e-05
171	0xb8647f78	-5.447815e-05
172	0x3763743e	1.3557319e-05
173	0x37e4f6bb	2.729461e-05
174	0x3818d40a	3.64371e-05
175	0x3889af9d	6.5653796e-05
176	0xb88655db	-6.40561e-05
177	0xb7c32880	-2.326467e-05
178	0xb8b5e214	-8.672863e-05
179	0xb8469368	-4.734416e-05
180	0x37f949ae	2.9717423e-05
181	0xb83ca219	-4.4973658e-05
182	0xb82b3ffb	-4.0829163e-05
183	0x382e741a	4.159296e-05
184	0x38b0fc1b	8.439292e-05
185	0x386f089b	5.6990055e-05
186	0x388fb9fd	6.8534144e-05
187	0x38c95b2d	9.60141e-05
188	0xb6c29241	-5.7986767e-06
189	0x369257ac	4.3613454e-06
190	0xb84a9d34	-4.830696e-05
191	0xb8945d53	-7.074573e-05
192	0xb80fd8e8	-3.4295866e-05
193	0xb784633a	-1.5781832e-05
194	0x3808b7ed	3.259622e-05
195	0xb4d490b4	-3.9593363e-07
196	0xb894497d	-7.070878e-05
197	0x369e7e65	4.723481e-06
198	0x389d564e	7.502419e-05
199	0xb74769ea	-1.1885984e-05
200	0x35e78620	1.7249877e-06
201	0x359c79e6	1.1658383e-06
202	0x359b472b	1.1569113e-06
203	0x354fa5e7	7.735493e-07
204	0xb5aeda02	-1.3027459e-06
205	0x355afa38	8.1575445e-07
206	0x361d9691	2.3482464e-06
207	0x354d987e	7.6590356e-07
208	0xb61852c9	-2.2697952e-06
209	0xb5810676	-9.613129e-07
210	0xb5ce68e1	-1.537872e-06
211	0x3664611c	3.4031173e-06
212	0xb4882786	-2.536073e-07
213	0xb633d0f6	-2.679471e-06
214	0x360773eb	2.018404e-06
215	0xb683f8d2	-3.9330707e-06
216	0x3642b59e	2.9013968e-06
217	0x342e7f98	1.6251431e-07
218	0x3672d6eb	3.6185909e-06
219	0xb4fdb300	-4.7255162e-07
220	0xb5cf9980	-1.5467376e-06
221	0x360d43bc	2.1050064e-06
222	0x34f1bb00	4.5025809e-07
223	0xb6a78337	-4.9922633e-06
224	0xb5fcaf68	-1.8826513e-06
225	0xb659065e	-3.2339226e-06
226	0xb626f589	-2.4878848e-06
227	0xb6309104	-2.6310454e-06
228	0x35969dea	1.122183e-06
229	0xb59091c1	-1.0771256e-06
230	0xb5210348	-5.998195e-07
231	0x36162bfe	2.2377349e-06
232	0x34cfd878	3.8714256e-07
233	0xb444647a	-1.8290476e-07
234	0x35c40472	1.4604432e-06
235	0x3495fbd6	2.7936647e-07
236	0x356ef5bb	8.9019494e-07
237	0x3487fe71	2.533084e-07
238	0xb59b628c	-1.1577081e-06
239	0xb5190eb0	-5.7018315e-07
240	0x3131d368	2.587706e-09
241	0xb275d72b	-1.43098005e-08
242	0xb131eb17	-2.5890523e-09
243	0xb14ad9bd	-2.9518639e-09
244	0xb2648f1f	-1.3303889e-08
245	0xb1468cfb	-2.889293e-09
246	0xb26ab9fd	-1.36628815e-08
247	0x322b9b35	9.9888e-09
248	0xb19e82a4	-4.6132573e-09
249	0xb1b22c52	-5.1855205e-09
250	0xb1caffa2	-5.908036e-09
251	0xb28bfba3	-1.629616e-08
252	0x3151d2b4	3.0533274e-09
253	0xb02c7a28	-6.274683e-10
254	0xb017e450	-5.525793e-10
255	0x3285f915	1.5596507e-08
