ode_net/code/output/_holder_model_to_prune/best_val_model_alpha_comb_prods.pt (torch, 170275 bytes, 3 tensors)

weight_orig f4 [350, 40]
000000 c4 46 25 37 0e bb 68 36 82 ce 6d 35 56 5c 4f 37
       9.851243e-06 3.4679574e-06 8.858989e-07 1.235966e-05
000010 dd 4f 82 b7 67 d0 57 38 44 32 1b b8 4f e9 5e 37
       -1.5534397e-05 5.1454084e-05 -3.7001693e-05 1.32865525e-05
000020 b1 83 57 b7 e7 9a c8 36 3d 9b 04 38 17 e3 72 37
       -1.284566e-05 5.9784975e-06 3.161583e-05 1.44771975e-05
000030 ad cd 1a 39 28 2d 9a b6 28 65 45 37 24 12 f2 3a
       0.00014763205 -4.5948145e-06 1.1765667e-05 0.0018468541
000040 09 cc 1a b8 e4 a6 5f b7 29 8f 5f b7 41 16 eb 36
       -3.6906484e-05 -1.3330693e-05 -1.3325168e-05 7.0061365e-06
000050 9d 7e 5f 39 d2 a1 15 b8 72 07 d9 b6 1c 98 38 37
       0.00021314104 -3.5675075e-05 -6.4679707e-06 1.100267e-05
000060 8e f7 00 b7 b3 e5 15 b8 80 f2 08 b8 bd 2b cc b7
       -7.687033e-06 -3.5738292e-05 -3.2650772e-05 -2.4339062e-05
000070 f3 93 81 39 fd 00 20 b9 95 03 8f b7 80 62 78 b7
       0.00024715028 -0.00015259157 -1.7048596e-05 -1.4804886e-05
000080 27 ca e8 b6 31 62 96 b8 d7 86 da b8 3c f8 96 b8
       -6.9376724e-06 -7.170847e-05 -0.00010420166 -7.1987946e-05
000090 74 82 94 37 8c 98 0e b8 aa ac 8c b8 40 be 0f 37
       1.7703722e-05 -3.399751e-05 -6.7078814e-05 8.56776e-06
0000a0 41 f7 ad 3a ee ef 25 bd 30 5e f2 bc 34 47 56 bd
       0.001327254 -0.040512018 -0.029585928 -0.052314
0000b0 c9 b8 74 bc 61 8c 18 bd 22 1a 3e 3d c5 05 a8 bc
       -0.014936634 -0.03724325 0.04641164 -0.020510564
0000c0 2a 70 86 be 93 d6 8e bd a2 d0 16 bc d9 5d 76 3d
       -0.2625745 -0.069745205 -0.009205015 0.060148094
0000d0 7b 4e a0 bd 5c f5 81 3c 8b 02 b7 3a c9 bd bb b9
       -0.07827469 0.015864067 0.001396255 -0.0003580882
0000e0 2b 60 a8 bd fa be 7a bd f3 b7 f5 3c 6b c6 1b 3e
       -0.082214676 -0.061217286 0.02999494 0.15212409
0000f0 77 fb 33 be d6 99 1b 3d 78 14 0c 3d cc 2c 06 be
       -0.17576395 0.037988506 0.034199208 -0.13103026
000100 e5 2c 00 3e 5b 2e 81 3d 39 ef 08 bd 1f 8f b0 3e
       0.12517126 0.0630767 -0.033431266 0.34484193
000110 f4 42 7a bd 5a 77 a7 be 13 ca 73 3d d1 66 9d be
       -0.061099008 -0.32708246 0.059518885 -0.30742505
000120 f2 0c 79 3a fc 88 91 3e 88 02 81 3e c2 c4 54 bd
       0.0009500525 0.28424823 0.25197244 -0.051945455
000130 a9 46 c3 3d e0 71 9a 3d fe 03 f5 39 44 09 ff 3d
       0.09534962 0.07541251 0.00046733016 0.12452939
000140 98 19 3a be 9a dd c4 bd a1 cb 23 bc f4 e5 05 bc
       -0.18173826 -0.0961258 -0.009997279 -0.008172501
000150 44 96 5f 3b 7c fd 55 3c 7c 17 43 3d 93 1b 12 bd
       0.0034116665 0.013060924 0.04762982 -0.035670828
000160 d2 5a ec bc 38 e2 e0 3b d1 6c 35 bd 1f ad d8 3c
       -0.0288519 0.006862905 -0.04429323 0.026449738
000170 3c 36 58 be a6 f9 b6 bd fa 28 5f bd 0a 1b ef bd
       -0.21114439 -0.089343354 -0.054482438 -0.11675079
000180 0e e3 cd 3b ea fb 94 ba 85 cf 03 bd 6d 6d 3b 3e
       0.0062831705 -0.001136658 -0.032180328 0.18303461
000190 ad bf 48 bc 0c d9 23 3e ba 89 0e bd 45 91 88 3c
       -0.01225273 0.16000766 -0.034799315 0.016670832
0001a0 aa a5 62 3e e4 a7 e3 3d 4f 3e 5f 3d 5e a9 14 3e
       0.22133508 0.11116007 0.05450278 0.14517733
0001b0 96 ba f4 3c 9b 35 ae bd 66 22 83 3b 03 43 e4 3e
       0.029874127 -0.08506318 0.0040019033 0.44582376
0001c0 84 59 94 bd 5d 85 22 3e 83 12 20 be 12 45 9f 3c
       -0.07243636 0.15871187 -0.15632062 0.019442115
0001d0 9d c9 69 3e 02 4f 5a 3e 6b 28 b4 3d c4 c4 0d bd
       0.22830816 0.21319202 0.087967716 -0.03461148
0001e0 09 0f 4f 3d c2 df 5e 3c 48 27 65 3d 8c 60 28 bd
       0.050551448 0.013603153 0.055945665 -0.0411077
0001f0 fa e1 06 ba 06 83 27 3e f8 08 01 bd 51 89 85 bd
       -0.00051453675 0.16358575 -0.031502694 -0.06520332
000200 3f fc e3 bb a3 9c 97 3d 80 e8 a8 3d 35 9c b1 bd
       -0.0069575603 0.07402923 0.08247471 -0.08672372
000210 eb b3 8c 3e 26 6b 37 3b 80 59 e3 3c ac f8 f0 3d
       0.27481017 0.002798745 0.027752638 0.117661804
000220 7b 0a dd 3d e4 39 e4 3c de d2 84 3d 2c 38 e9 bc
       0.107930146 0.027859636 0.06485532 -0.028469168
000230 54 06 90 3e d7 6a 61 bd ca 49 29 3d 5c 0e cc bd
       0.28129828 -0.05503353 0.041330136 -0.09963676
000240 5e 86 e8 3d 78 7a 07 be ba aa be 3d aa ea 63 3e
       0.113537535 -0.13230312 0.09309907 0.22257486
000250 2c a4 c1 3d 5c 49 46 39 49 81 4d 3c a3 5f 17 3e
       0.094551414 0.0001891008 0.012543031 0.14782576
000260 b6 f7 8f bd f6 18 90 3e 92 09 cd be 26 0b 1c bd
       -0.07029669 0.28144044 -0.40046364 -0.03809657
000270 27 dd ce be 58 f0 4a be 13 f9 a0 3e 6a 86 5a 3d
       -0.404031 -0.19818246 0.3144003 0.053350843
000280 49 1d 4b b7 1d ac 86 37 e9 e6 3f 37 8c 99 76 36
       -1.2106561e-05 1.6054191e-05 1.143825e-05 3.6746233e-06
000290 92 38 91 b6 6f eb 21 37 0f b2 e5 b7 8f 9c 4e 37
       -4.3279224e-06 9.651164e-06 -2.7381842e-05 1.23150085e-05
0002a0 14 1a 24 38 07 8b f7 b5 c1 1e 5a 37 f0 4e 69 37
       3.9124934e-05 -1.8443396e-06 1.3000973e-05 1.3906261e-05
0002b0 44 b9 d0 36 b4 53 94 b7 34 6c 38 36 4f fb 36 3a
       6.220451e-06 -1.7681952e-05 2.748112e-06 0.0006980197
0002c0 14 8d 02 b7 0a 95 1d b7 23 d3 b5 b6 17 19 48 37
       -7.781451e-06 -9.39263e-06 -5.4188e-06 1.1926771e-05
0002d0 c2 71 c2 39 b2 35 50 b7 a2 eb 05 37 93 18 22 37
       0.0003708732 -1.2410268e-05 7.98228e-06 9.661674e-06
0002e0 08 95 56 35 a6 c0 0d b7 95 2f f0 b6 4b f6 d6 b8
       7.993808e-07 -8.449109e-06 -7.1580967e-06 -0.00010250191
0002f0 fa bc ed b8 ab 2d bc b8 00 cb 2d b7 33 0c 09 38
       -0.0001133624 -8.973045e-05 -1.0358868e-05 3.2674707e-05
000300 4f 51 43 b7 19 f9 7f b8 37 0f 0a b8 25 45 15 37
       -1.1641837e-05 -6.1028728e-05 -3.2915934e-05 8.897191e-06
000310 1f 92 80 38 7e f1 04 37 02 46 fa b8 27 4e 9d 37
       6.130733e-05 7.92404e-06 -0.00011933969 1.8752251e-05
000320 50 1b 21 b6 02 9d 44 b6 76 22 39 b6 12 41 53 b6
       -2.4006767e-06 -2.9297667e-06 -2.7587207e-06 -3.1479326e-06
000330 de aa 05 b6 9c d8 3e b6 3a 01 1e b6 5a 98 5e b6
       -1.9918002e-06 -2.843829e-06 -2.3544549e-06 -3.3169258e-06
000340 b4 f4 9d b5 da 35 33 b6 e1 81 83 b6 14 eb 42 b6
       -1.176863e-06 -2.6704424e-06 -3.919224e-06 -2.9045086e-06
000350 ca 24 50 b6 ac a8 38 b6 76 80 37 b6 5e e9 0e b8
       -3.101583e-06 -2.7516317e-06 -2.73439e-06 -3.407278e-05
000360 02 c2 92 b5 c1 8e 28 b6 2c a0 70 b6 80 50 12 b6
       -1.0934311e-06 -2.5117045e-06 -3.585602e-06 -2.1802553e-06
000370 82 e3 e3 b6 22 7f 9a b5 1a 8b 15 b6 ac f6 76 b6
       -6.7916126e-06 -1.1510895e-06 -2.2283698e-06 -3.6800438e-06
000380 33 19 04 b6 98 34 22 b6 8e 76 fb b5 92 9b 32 b5
       -1.96842e-06 -2.4170495e-06 -1.8735461e-06 -6.653655e-07
000390 1f 92 ae b5 c0 0d a7 35 56 73 2d b6 18 02 8c b5
       -1.3006537e-06 1.2446471e-06 -2.5846143e-06 -1.0431422e-06
0003a0 5e d9 4a b6 48 d9 8a 34 a0 59 43 35 48 e6 78 b5
       -3.022687e-06 2.5862596e-07 7.277358e-07 -9.27223e-07
0003b0 1a 60 ce b5 a4 13 77 b5 88 d4 ca 34 42 67 55 b6
       -1.5376165e-06 -9.204325e-07 3.778007e-07 -3.1799577e-06
0003c0 02 39 1a 31 d5 1a 04 31 d3 e5 58 31 4c e0 12 ad
       2.2442355e-09 1.922378e-09 3.1562777e-09 -8.348943e-12
0003d0 0d c7 83 b0 37 b6 57 32 f4 ec 05 b2 ac f9 c7 30
       -9.588078e-10 1.2556078e-08 -7.795496e-09 1.4550117e-09
0003e0 c2 02 81 b0 96 93 01 30 c5 c0 a6 31 e3 17 07 31
       -9.386769e-10 4.713966e-10 4.853151e-09 1.9658664e-09
0003f0 78 1a 4f 32 76 d1 d1 b0 c2 c9 73 31 cd 5f 08 34
       1.2055004e-08 -1.5266284e-09 3.547584e-09 1.2700839e-07

weight_mask f4 [350, 40]
000000 00 00 80 3f 00 00 80 3f 00 00 80 3f 00 00 80 3f
       1.0 1.0 1.0 1.0
000010 00 00 80 3f 00 00 80 3f 00 00 80 3f 00 00 80 3f
       1.0 1.0 1.0 1.0
000020 00 00 80 3f 00 00 80 3f 00 00 80 3f 00 00 80 3f
       1.0 1.0 1.0 1.0
000030 00 00 80 3f 00 00 80 3f 00 00 80 3f 00 00 80 3f
       1.0 1.0 1.0 1.0
000040 00 00 80 3f 00 00 80 3f 00 00 80 3f 00 00 80 3f
       1.0 1.0 1.0 1.0
000050 00 00 80 3f 00 00 80 3f 00 00 80 3f 00 00 80 3f
       1.0 1.0 1.0 1.0
000060 00 00 80 3f 00 00 80 3f 00 00 80 3f 00 00 80 3f
       1.0 1.0 1.0 1.0
000070 00 00 80 3f 00 00 80 3f 00 00 80 3f 00 00 80 3f
       1.0 1.0 1.0 1.0
000080 00 00 80 3f 00 00 80 3f 00 00 80 3f 00 00 80 3f
       1.0 1.0 1.0 1.0
000090 00 00 80 3f 00 00 80 3f 00 00 80 3f 00 00 80 3f
       1.0 1.0 1.0 1.0
0000a0 00 00 80 3f 00 00 80 3f 00 00 80 3f 00 00 80 3f
       1.0 1.0 1.0 1.0
0000b0 00 00 80 3f 00 00 80 3f 00 00 80 3f 00 00 80 3f
       1.0 1.0 1.0 1.0
0000c0 00 00 80 3f 00 00 80 3f 00 00 80 3f 00 00 80 3f
       1.0 1.0 1.0 1.0
0000d0 00 00 80 3f 00 00 80 3f 00 00 80 3f 00 00 80 3f
       1.0 1.0 1.0 1.0
0000e0 00 00 80 3f 00 00 80 3f 00 00 80 3f 00 00 80 3f
       1.0 1.0 1.0 1.0
0000f0 00 00 80 3f 00 00 80 3f 00 00 80 3f 00 00 80 3f
       1.0 1.0 1.0 1.0
000100 00 00 80 3f 00 00 80 3f 00 00 80 3f 00 00 80 3f
       1.0 1.0 1.0 1.0
000110 00 00 80 3f 00 00 80 3f 00 00 80 3f 00 00 80 3f
       1.0 1.0 1.0 1.0
000120 00 00 80 3f 00 00 80 3f 00 00 80 3f 00 00 80 3f
       1.0 1.0 1.0 1.0
000130 00 00 80 3f 00 00 80 3f 00 00 80 3f 00 00 80 3f
       1.0 1.0 1.0 1.0
000140 00 00 80 3f 00 00 80 3f 00 00 80 3f 00 00 80 3f
       1.0 1.0 1.0 1.0
000150 00 00 80 3f 00 00 80 3f 00 00 80 3f 00 00 80 3f
       1.0 1.0 1.0 1.0
000160 00 00 80 3f 00 00 80 3f 00 00 80 3f 00 00 80 3f
       1.0 1.0 1.0 1.0
000170 00 00 80 3f 00 00 80 3f 00 00 80 3f 00 00 80 3f
       1.0 1.0 1.0 1.0
000180 00 00 80 3f 00 00 80 3f 00 00 80 3f 00 00 80 3f
       1.0 1.0 1.0 1.0
000190 00 00 80 3f 00 00 80 3f 00 00 80 3f 00 00 80 3f
       1.0 1.0 1.0 1.0
0001a0 00 00 80 3f 00 00 80 3f 00 00 80 3f 00 00 80 3f
       1.0 1.0 1.0 1.0
0001b0 00 00 80 3f 00 00 80 3f 00 00 80 3f 00 00 80 3f
       1.0 1.0 1.0 1.0
0001c0 00 00 80 3f 00 00 80 3f 00 00 80 3f 00 00 80 3f
       1.0 1.0 1.0 1.0
0001d0 00 00 80 3f 00 00 80 3f 00 00 80 3f 00 00 80 3f
       1.0 1.0 1.0 1.0
0001e0 00 00 80 3f 00 00 80 3f 00 00 80 3f 00 00 80 3f
       1.0 1.0 1.0 1.0
0001f0 00 00 80 3f 00 00 80 3f 00 00 80 3f 00 00 80 3f
       1.0 1.0 1.0 1.0
000200 00 00 80 3f 00 00 80 3f 00 00 80 3f 00 00 80 3f
       1.0 1.0 1.0 1.0
000210 00 00 80 3f 00 00 80 3f 00 00 80 3f 00 00 80 3f
       1.0 1.0 1.0 1.0
000220 00 00 80 3f 00 00 80 3f 00 00 80 3f 00 00 80 3f
       1.0 1.0 1.0 1.0
000230 00 00 80 3f 00 00 80 3f 00 00 80 3f 00 00 80 3f
       1.0 1.0 1.0 1.0
000240 00 00 80 3f 00 00 80 3f 00 00 80 3f 00 00 80 3f
       1.0 1.0 1.0 1.0
000250 00 00 80 3f 00 00 80 3f 00 00 80 3f 00 00 80 3f
       1.0 1.0 1.0 1.0
000260 00 00 80 3f 00 00 80 3f 00 00 80 3f 00 00 80 3f
       1.0 1.0 1.0 1.0
000270 00 00 80 3f 00 00 80 3f 00 00 80 3f 00 00 80 3f
       1.0 1.0 1.0 1.0
000280 00 00 80 3f 00 00 80 3f 00 00 80 3f 00 00 80 3f
       1.0 1.0 1.0 1.0
000290 00 00 80 3f 00 00 80 3f 00 00 80 3f 00 00 80 3f
       1.0 1.0 1.0 1.0
0002a0 00 00 80 3f 00 00 80 3f 00 00 80 3f 00 00 80 3f
       1.0 1.0 1.0 1.0
0002b0 00 00 80 3f 00 00 80 3f 00 00 80 3f 00 00 80 3f
       1.0 1.0 1.0 1.0
0002c0 00 00 80 3f 00 00 80 3f 00 00 80 3f 00 00 80 3f
       1.0 1.0 1.0 1.0
0002d0 00 00 80 3f 00 00 80 3f 00 00 80 3f 00 00 80 3f
       1.0 1.0 1.0 1.0
0002e0 00 00 80 3f 00 00 80 3f 00 00 80 3f 00 00 80 3f
       1.0 1.0 1.0 1.0
0002f0 00 00 80 3f 00 00 80 3f 00 00 80 3f 00 00 80 3f
       1.0 1.0 1.0 1.0
000300 00 00 80 3f 00 00 80 3f 00 00 80 3f 00 00 80 3f
       1.0 1.0 1.0 1.0
000310 00 00 80 3f 00 00 80 3f 00 00 80 3f 00 00 80 3f
       1.0 1.0 1.0 1.0
000320 00 00 80 3f 00 00 80 3f 00 00 80 3f 00 00 80 3f
       1.0 1.0 1.0 1.0
000330 00 00 80 3f 00 00 80 3f 00 00 80 3f 00 00 80 3f
       1.0 1.0 1.0 1.0
000340 00 00 80 3f 00 00 80 3f 00 00 80 3f 00 00 80 3f
       1.0 1.0 1.0 1.0
000350 00 00 80 3f 00 00 80 3f 00 00 80 3f 00 00 80 3f
       1.0 1.0 1.0 1.0
000360 00 00 80 3f 00 00 80 3f 00 00 80 3f 00 00 80 3f
       1.0 1.0 1.0 1.0
000370 00 00 80 3f 00 00 80 3f 00 00 80 3f 00 00 80 3f
       1.0 1.0 1.0 1.0
000380 00 00 80 3f 00 00 80 3f 00 00 80 3f 00 00 80 3f
       1.0 1.0 1.0 1.0
000390 00 00 80 3f 00 00 80 3f 00 00 80 3f 00 00 80 3f
       1.0 1.0 1.0 1.0
0003a0 00 00 80 3f 00 00 80 3f 00 00 80 3f 00 00 80 3f
       1.0 1.0 1.0 1.0
0003b0 00 00 80 3f 00 00 80 3f 00 00 80 3f 00 00 80 3f
       1.0 1.0 1.0 1.0
0003c0 00 00 80 3f 00 00 80 3f 00 00 80 3f 00 00 80 3f
       1.0 1.0 1.0 1.0
0003d0 00 00 80 3f 00 00 80 3f 00 00 80 3f 00 00 80 3f
       1.0 1.0 1.0 1.0
0003e0 00 00 80 3f 00 00 80 3f 00 00 80 3f 00 00 80 3f
       1.0 1.0 1.0 1.0
0003f0 00 00 80 3f 00 00 80 3f 00 00 80 3f 00 00 80 3f
       1.0 1.0 1.0 1.0

weight f4 [350, 40]
000000 c4 46 25 37 0e bb 68 36 82 ce 6d 35 56 5c 4f 37
       9.851243e-06 3.4679574e-06 8.858989e-07 1.235966e-05
000010 dd 4f 82 b7 67 d0 57 38 44 32 1b b8 4f e9 5e 37
       -1.5534397e-05 5.1454084e-05 -3.7001693e-05 1.32865525e-05
000020 b1 83 57 b7 e7 9a c8 36 3d 9b 04 38 17 e3 72 37
       -1.284566e-05 5.9784975e-06 3.161583e-05 1.44771975e-05
000030 ad cd 1a 39 28 2d 9a b6 28 65 45 37 24 12 f2 3a
       0.00014763205 -4.5948145e-06 1.1765667e-05 0.0018468541
000040 09 cc 1a b8 e4 a6 5f b7 29 8f 5f b7 41 16 eb 36
       -3.6906484e-05 -1.3330693e-05 -1.3325168e-05 7.0061365e-06
000050 9d 7e 5f 39 d2 a1 15 b8 72 07 d9 b6 1c 98 38 37
       0.00021314104 -3.5675075e-05 -6.4679707e-06 1.100267e-05
000060 8e f7 00 b7 b3 e5 15 b8 80 f2 08 b8 bd 2b cc b7
       -7.687033e-06 -3.5738292e-05 -3.2650772e-05 -2.4339062e-05
000070 f3 93 81 39 fd 00 20 b9 95 03 8f b7 80 62 78 b7
       0.00024715028 -0.00015259157 -1.7048596e-05 -1.4804886e-05
000080 27 ca e8 b6 31 62 96 b8 d7 86 da b8 3c f8 96 b8
       -6.9376724e-06 -7.170847e-05 -0.00010420166 -7.1987946e-05
000090 74 82 94 37 8c 98 0e b8 aa ac 8c b8 40 be 0f 37
       1.7703722e-05 -3.399751e-05 -6.7078814e-05 8.56776e-06
0000a0 41 f7 ad 3a ee ef 25 bd 30 5e f2 bc 34 47 56 bd
       0.001327254 -0.040512018 -0.029585928 -0.052314
0000b0 c9 b8 74 bc 61 8c 18 bd 22 1a 3e 3d c5 05 a8 bc
       -0.014936634 -0.03724325 0.04641164 -0.020510564
0000c0 2a 70 86 be 93 d6 8e bd a2 d0 16 bc d9 5d 76 3d
       -0.2625745 -0.069745205 -0.009205015 0.060148094
0000d0 7b 4e a0 bd 5c f5 81 3c 8b 02 b7 3a c9 bd bb b9
       -0.07827469 0.015864067 0.001396255 -0.0003580882
0000e0 2b 60 a8 bd fa be 7a bd f3 b7 f5 3c 6b c6 1b 3e
       -0.082214676 -0.061217286 0.02999494 0.15212409
0000f0 77 fb 33 be d6 99 1b 3d 78 14 0c 3d cc 2c 06 be
       -0.17576395 0.037988506 0.034199208 -0.13103026
000100 e5 2c 00 3e 5b 2e 81 3d 39 ef 08 bd 1f 8f b0 3e
       0.12517126 0.0630767 -0.033431266 0.34484193
000110 f4 42 7a bd 5a 77 a7 be 13 ca 73 3d d1 66 9d be
       -0.061099008 -0.32708246 0.059518885 -0.30742505
000120 f2 0c 79 3a fc 88 91 3e 88 02 81 3e c2 c4 54 bd
       0.0009500525 0.28424823 0.25197244 -0.051945455
000130 a9 46 c3 3d e0 71 9a 3d fe 03 f5 39 44 09 ff 3d
       0.09534962 0.07541251 0.00046733016 0.12452939
000140 98 19 3a be 9a dd c4 bd a1 cb 23 bc f4 e5 05 bc
       -0.18173826 -0.0961258 -0.009997279 -0.008172501
000150 44 96 5f 3b 7c fd 55 3c 7c 17 43 3d 93 1b 12 bd
       0.0034116665 0.013060924 0.04762982 -0.035670828
000160 d2 5a ec bc 38 e2 e0 3b d1 6c 35 bd 1f ad d8 3c
       -0.0288519 0.006862905 -0.04429323 0.026449738
000170 3c 36 58 be a6 f9 b6 bd fa 28 5f bd 0a 1b ef bd
       -0.21114439 -0.089343354 -0.054482438 -0.11675079
000180 0e e3 cd 3b ea fb 94 ba 85 cf 03 bd 6d 6d 3b 3e
       0.0062831705 -0.001136658 -0.032180328 0.18303461
000190 ad bf 48 bc 0c d9 23 3e ba 89 0e bd 45 91 88 3c
       -0.01225273 0.16000766 -0.034799315 0.016670832
0001a0 aa a5 62 3e e4 a7 e3 3d 4f 3e 5f 3d 5e a9 14 3e
       0.22133508 0.11116007 0.05450278 0.14517733
0001b0 96 ba f4 3c 9b 35 ae bd 66 22 83 3b 03 43 e4 3e
       0.029874127 -0.08506318 0.0040019033 0.44582376
0001c0 84 59 94 bd 5d 85 22 3e 83 12 20 be 12 45 9f 3c
       -0.07243636 0.15871187 -0.15632062 0.019442115
0001d0 9d c9 69 3e 02 4f 5a 3e 6b 28 b4 3d c4 c4 0d bd
       0.22830816 0.21319202 0.087967716 -0.03461148
0001e0 09 0f 4f 3d c2 df 5e 3c 48 27 65 3d 8c 60 28 bd
       0.050551448 0.013603153 0.055945665 -0.0411077
0001f0 fa e1 06 ba 06 83 27 3e f8 08 01 bd 51 89 85 bd
       -0.00051453675 0.16358575 -0.031502694 -0.06520332
000200 3f fc e3 bb a3 9c 97 3d 80 e8 a8 3d 35 9c b1 bd
       -0.0069575603 0.07402923 0.08247471 -0.08672372
000210 eb b3 8c 3e 26 6b 37 3b 80 59 e3 3c ac f8 f0 3d
       0.27481017 0.002798745 0.027752638 0.117661804
000220 7b 0a dd 3d e4 39 e4 3c de d2 84 3d 2c 38 e9 bc
       0.107930146 0.027859636 0.06485532 -0.028469168
000230 54 06 90 3e d7 6a 61 bd ca 49 29 3d 5c 0e cc bd
       0.28129828 -0.05503353 0.041330136 -0.09963676
000240 5e 86 e8 3d 78 7a 07 be ba aa be 3d aa ea 63 3e
       0.113537535 -0.13230312 0.09309907 0.22257486
000250 2c a4 c1 3d 5c 49 46 39 49 81 4d 3c a3 5f 17 3e
       0.094551414 0.0001891008 0.012543031 0.14782576
000260 b6 f7 8f bd f6 18 90 3e 92 09 cd be 26 0b 1c bd
       -0.07029669 0.28144044 -0.40046364 -0.03809657
000270 27 dd ce be 58 f0 4a be 13 f9 a0 3e 6a 86 5a 3d
       -0.404031 -0.19818246 0.3144003 0.053350843
000280 49 1d 4b b7 1d ac 86 37 e9 e6 3f 37 8c 99 76 36
       -1.2106561e-05 1.6054191e-05 1.143825e-05 3.6746233e-06
000290 92 38 91 b6 6f eb 21 37 0f b2 e5 b7 8f 9c 4e 37
       -4.3279224e-06 9.651164e-06 -2.7381842e-05 1.23150085e-05
0002a0 14 1a 24 38 07 8b f7 b5 c1 1e 5a 37 f0 4e 69 37
       3.9124934e-05 -1.8443396e-06 1.3000973e-05 1.3906261e-05
0002b0 44 b9 d0 36 b4 53 94 b7 34 6c 38 36 4f fb 36 3a
       6.220451e-06 -1.7681952e-05 2.748112e-06 0.0006980197
0002c0 14 8d 02 b7 0a 95 1d b7 23 d3 b5 b6 17 19 48 37
       -7.781451e-06 -9.39263e-06 -5.4188e-06 1.1926771e-05
0002d0 c2 71 c2 39 b2 35 50 b7 a2 eb 05 37 93 18 22 37
       0.0003708732 -1.2410268e-05 7.98228e-06 9.661674e-06
0002e0 08 95 56 35 a6 c0 0d b7 95 2f f0 b6 4b f6 d6 b8
       7.993808e-07 -8.449109e-06 -7.1580967e-06 -0.00010250191
0002f0 fa bc ed b8 ab 2d bc b8 00 cb 2d b7 33 0c 09 38
       -0.0001133624 -8.973045e-05 -1.0358868e-05 3.2674707e-05
000300 4f 51 43 b7 19 f9 7f b8 37 0f 0a b8 25 45 15 37
       -1.1641837e-05 -6.1028728e-05 -3.2915934e-05 8.897191e-06
000310 1f 92 80 38 7e f1 04 37 02 46 fa b8 27 4e 9d 37
       6.130733e-05 7.92404e-06 -0.00011933969 1.8752251e-05
000320 50 1b 21 b6 02 9d 44 b6 76 22 39 b6 12 41 53 b6
       -2.4006767e-06 -2.9297667e-06 -2.7587207e-06 -3.1479326e-06
000330 de aa 05 b6 9c d8 3e b6 3a 01 1e b6 5a 98 5e b6
       -1.9918002e-06 -2.843829e-06 -2.3544549e-06 -3.3169258e-06
000340 b4 f4 9d b5 da 35 33 b6 e1 81 83 b6 14 eb 42 b6
       -1.176863e-06 -2.6704424e-06 -3.919224e-06 -2.9045086e-06
000350 ca 24 50 b6 ac a8 38 b6 76 80 37 b6 5e e9 0e b8
       -3.101583e-06 -2.7516317e-06 -2.73439e-06 -3.407278e-05
000360 02 c2 92 b5 c1 8e 28 b6 2c a0 70 b6 80 50 12 b6
       -1.0934311e-06 -2.5117045e-06 -3.585602e-06 -2.1802553e-06
000370 82 e3 e3 b6 22 7f 9a b5 1a 8b 15 b6 ac f6 76 b6
       -6.7916126e-06 -1.1510895e-06 -2.2283698e-06 -3.6800438e-06
000380 33 19 04 b6 98 34 22 b6 8e 76 fb b5 92 9b 32 b5
       -1.96842e-06 -2.4170495e-06 -1.8735461e-06 -6.653655e-07
000390 1f 92 ae b5 c0 0d a7 35 56 73 2d b6 18 02 8c b5
       -1.3006537e-06 1.2446471e-06 -2.5846143e-06 -1.0431422e-06
0003a0 5e d9 4a b6 48 d9 8a 34 a0 59 43 35 48 e6 78 b5
       -3.022687e-06 2.5862596e-07 7.277358e-07 -9.27223e-07
0003b0 1a 60 ce b5 a4 13 77 b5 88 d4 ca 34 42 67 55 b6
       -1.5376165e-06 -9.204325e-07 3.778007e-07 -3.1799577e-06
0003c0 02 39 1a 31 d5 1a 04 31 d3 e5 58 31 4c e0 12 ad
       2.2442355e-09 1.922378e-09 3.1562777e-09 -8.348943e-12
0003d0 0d c7 83 b0 37 b6 57 32 f4 ec 05 b2 ac f9 c7 30
       -9.588078e-10 1.2556078e-08 -7.795496e-09 1.4550117e-09
0003e0 c2 02 81 b0 96 93 01 30 c5 c0 a6 31 e3 17 07 31
       -9.386769e-10 4.713966e-10 4.853151e-09 1.9658664e-09
0003f0 78 1a 4f 32 76 d1 d1 b0 c2 c9 73 31 cd 5f 08 34
       1.2055004e-08 -1.5266284e-09 3.547584e-09 1.2700839e-07
